SR_model_large_deploy/SR_alt_model/outputs/model_ckpt.pth (torch, 538717 bytes, 18 tensors)

conv1.weight f4 [128, 3, 9, 9]
00000000: d3e8 73bd 6d22 513d 787e 89bd 4dfd 33bc
00000010: 0039 acbc c156 7abd 4ba5 85bd 95e6 9c3c
00000020: 40cc 273d 97aa 2cbd 179d 80bc cf64 943c
00000030: 0e44 533d b1d8 88bd cc0e 8bbc 8212 7dbd
00000040: 5728 7ebd b783 68bc a099 0d3c 16e8 3bbd
00000050: 3636 b53c 3310 ae3b ad85 cf3c ea57 5cbc
00000060: 03ae 5cbd e611 313d 6c02 03bc 8818 68bd
00000070: 5881 2cbd 95cc 09bd dff0 a8bb 33fb efbc
00000080: 2cf3 33bd 0645 6abd a060 003d bb2d 7dbd
00000090: a424 13bd b822 c23c 561d 78bd 659b 4d3d
000000a0: e55a a7bb 15dc 133d 144b 143c 0283 213d
000000b0: a6f6 79bd b5ce c33c a885 6abd 3699 40bd
000000c0: b737 3fbd a643 163c d023 323b 4c54 103c
000000d0: bdf5 093c a5e2 38bd 5a28 4dbd 324d 84bd
000000e0: 7698 14bd 383f 553c e13e 313d ea1c 8ebd
000000f0: 568c a83b 6522 84bd 85cf 51bd 923e 7cba
00000100: fac7 193d 5f1d 69bd ba27 5c3d 72d1 85bd
00000110: 4c02 26bd c599 503d c02b 2c3d bf3e 093d
00000120: a971 22bd 841c 943c b3df 4bbd e99b 1cbd
00000130: 01a8 1abd 504e c3bb e3c7 273c 9fef 17bd
00000140: bf0e 4f3d 82cd 3e3d 26c7 dbbc 6d75 723c
00000150: 64db 5a3b 1ce4 cb3c 58d6 b9bc c5c6 353b
00000160: 541d 07bd 2386 d83c 5e1e d5bc 49ac b6bb
00000170: 1c73 8abd b108 61bd aee9 493d 1f8a 6fbb
00000180: bdd6 ae3c 2cc4 69bd e564 a6bb afe1 d5b9
00000190: d475 09bd b6ff 153d 76a9 b63c 71be 5fbd
000001a0: 7c5c 11bd 032b c93c 38a6 1e3c 5136 d3bb
000001b0: 2ed5 50bc dc4e 8bbd e53b 7fbd 20a4 f03c
000001c0: 3988 fcbc 5ef3 59bc 0a2e 463d 7748 57bc
000001d0: 8569 dabb bb62 80bd 3f55 7abb b052 8d3c
000001e0: d765 f3bc c02e 9fba 6c4d 5dbc f4f7 1bbc
000001f0: 932d 1cbd 4ab0 1c3d 1edf c53a 5987 403b
00000200: d556 273d 84b8 e73c 8036 5fbd 6256 b73a
00000210: a953 39bc 68ce bebc e4c8 86bd f461 1f3c
00000220: 5b17 233d e2dd 023d b6fb c7bc b0d9 303d
00000230: 9c36 4ebd 844a a8bb 0ee7 40bd fa94 843c
00000240: 8757 90bd 6f26 cabc 17ec 1b3b f50f 76bd
00000250: 3a92 41bd 3dfc 393d 10e7 a63c cf96 163c
00000260: 7f1a eb3c b2a0 4bbd 5c09 1bbd f995 86bc
00000270: a8b5 afbb 7976 29bd da88 55bd ca7e 70bc
00000280: da7e c4bb 1014 1fbd 4292 e33c 8e6d 16bd
00000290: 53c5 0f3d 33db 843c cc84 2bbd c0d8 0bbd
000002a0: 0d48 493d 477f 4ebd 68a6 223d ac59 87bd
000002b0: 5b9c 353d daaa 89bd de20 34bd 1258 153d
000002c0: ff3f f83b ed8b 513d aa40 003d 65fd bbbc
000002d0: 2fd7 1c3d a7e5 8cbd f225 e7bc 1bf9 c03c
000002e0: 038c 38bc 70e1 ddbb 59bf f5bc 6e78 253d
000002f0: 8ecc 49bd bbf5 73bd 802a 603d 7c82 763c
00000300: 92e0 5dbd 00a6 acbb 85b7 2fbd e577 ed3c
00000310: 4de6 d6bb a2e7 0fbd ddf3 69bd 74c3 bb3b
00000320: c495 453d 63f9 febc 2f11 933c cdc6 0e3d
00000330: 5bb4 1cbd 9de4 573a efba e8bc 64ec 393b
00000340: 06bd 4e3d c771 61bd 0138 1b3d 8b2e 8dbd
00000350: e28e 27bd 22d8 4e3d 8c0c f8bc 02d7 f43a
00000360: d48e 9dbc c73e b1bc 3745 5ebd fee1 7039
00000370: 468d 473d 95bc 5dbd 5068 9b3c ba2b fa3b
00000380: f451 633d 3244 18bc ad40 69bd 4f8b 223b
00000390: 8bbf 6abd 3343 8ebc 2db5 e13c 4680 2abd
000003a0: d957 de3c ae3e d13c 51f5 c23c a2ae c93c
000003b0: 92ee b9bb 6136 49bd 3670 b7bc 5f22 273d
000003c0: 78ef d13b 8e98 15ba b4aa 3ebd 7d0b 5c3e
000003d0: 1930 c5be f3a8 4a3e 9eb4 abbe 591a c7be
000003e0: 01fd 6b3e 19b9 c3be ac3e d0be e383 ae3e
000003f0: df3d 50be 378d e8bc ac2d 613e 6e2c 44be
-0.05954821 0.05105822 -0.06713575 -0.010985685 -0.021023273 -0.06111789 -0.06525668 0.019152919
0.040966272 -0.042154875 -0.015699906 0.018114476 0.051578574 -0.066819556 -0.01697483 -0.06178523
-0.06205019 -0.0141915595 0.008642584 -0.04587563 0.022120576 0.0053119897 0.025332296 -0.013448695
-0.053876888 0.04322996 -0.007996183 -0.05666402 -0.04211554 -0.03364237 -0.005155667 -0.029294586
-0.04393308 -0.057194732 0.03134215 -0.06181119 -0.035923615 0.023698196 -0.060574852 0.050197024
-0.005107271 0.03609856 0.009051103 0.03943158 -0.061026238 0.023902277 -0.05725637 -0.047021113
-0.046683993 0.009171402 0.002718199 0.00880916 0.008420405 -0.04513802 -0.05008731 -0.06460036
-0.03627821 0.013015561 0.043272857 -0.06939109 0.0051436825 -0.06451873 -0.051223297 -0.0009622361
0.037544228 -0.056912776 0.053748824 -0.06534089 -0.040529534 0.050927896 0.04203391 0.033507105
-0.039659176 0.018080004 -0.049773883 -0.038234625 -0.037757877 -0.0059602633 0.010240528 -0.037093755
0.050551172 0.046582706 -0.02682836 0.014798504 0.0033394927 0.024889044 -0.022685215 0.0027736884
-0.032986954 0.026431149 -0.026015457 -0.005574737 -0.067602366 -0.05493993 0.04929512 -0.0036550832
0.02134263 -0.05707185 -0.0050779455 -0.00040794673 -0.033559635 0.036620818 0.022297602 -0.05462498
-0.03548859 0.024556642 0.009683184 -0.006445684 -0.0127461385 -0.068021506 -0.06231298 0.029375136
-0.030826675 -0.013302652 0.04838375 -0.013139836 -0.006665411 -0.06268831 -0.0038197783 0.017251343
-0.029711647 -0.001214467 -0.013507228 -0.009519566 -0.0381294 0.03825406 0.0015096401 0.0029377548
0.040854294 0.028286226 -0.054495335 0.0013987536 -0.01131145 -0.023291782 -0.065812856 0.009727944
0.039817195 0.031949885 -0.024412017 0.043176353 -0.05034505 -0.005135836 -0.04709535 0.016184319
-0.070479445 -0.02467653 0.0023791844 -0.06007381 -0.047258593 0.04540657 0.020373851 0.009191229
0.028699158 -0.049713798 -0.037850723 -0.016428934 -0.0053622313 -0.04137275 -0.052132465 -0.014678666
-0.005996567 -0.038837492 0.027779702 -0.036725573 0.035100292 0.016217804 -0.04187469 -0.034142256
0.04914098 -0.05041435 0.03970948 -0.066089004 0.044338565 -0.067220405 -0.043976657 0.036460944
0.0075759883 0.051158834 0.03131167 -0.022947976 0.038291153 -0.0687974 -0.028216336 0.023556283
-0.01126385 -0.006771259 -0.029998468 0.040398054 -0.049267344 -0.05956052 0.05472803 0.015045758
-0.054169245 -0.005268812 -0.042899627 0.028987834 -0.0065582157 -0.03513301 -0.05711733 0.005730087
0.04823853 -0.031124776 0.01795253 0.03485756 -0.038257938 0.0008235665 -0.02840945 0.002836966
0.050473236 -0.055040147 0.037895206 -0.06893643 -0.040907748 0.05049909 -0.03027942 0.00186798
-0.019233145 -0.02163638 -0.054265227 0.00022972372 0.048718713 -0.054134924 0.018970639 0.007634607
0.05549808 -0.009293603 -0.056946445 0.0024802273 -0.057311576 -0.017366027 0.027552212 -0.041626237
0.027141498 0.025542583 0.023798617 0.024619404 -0.0056741918 -0.049124125 -0.022392374 0.040804263
0.0064067207 -0.00057066313 -0.046549514 0.21488757 -0.38513258 0.19791012 -0.33536237 -0.3888729
0.23045732 -0.38227156 -0.40672815 0.34084997 -0.20336102 -0.028387649 0.21990079 -0.19157574

conv1.bias f4 [128]
00000000: 29ad 72bd 2103 ccbf de20 78bd 436b 8cbe
00000010: cb7d 98bf 83f3 f7bd f94f 34bd 9de0 4d3d
00000020: 8630 093e f4f3 56bb 0cf8 d33d 7033 68bc
00000030: b490 f3bd 448a 6f3d 89f8 c7be 2661 e4be
00000040: 108f 213e 70f7 0bc0 e6d1 e8bd ffe7 f9be
00000050: 786f 56be 2f21 9c3d 1e93 c9be dbe6 303e
00000060: f98a 2dbf 5ab5 20bf 72f0 e8be 41c5 483d
00000070: 86b6 ea3b 1d53 fabd 130c 873c 40e5 ed3d
00000080: f20b 343d e7f1 23bf 40f8 57bd 87ac fe3d
00000090: 9181 5e3d 9791 ac3d e9ed d2bd f1ad 093e
000000a0: bf6d 88bc 87f4 0cbe 4043 63bd 4e71 21bd
000000b0: ed8c 7bbd 92f5 463d 50d2 1a3e 8f45 163e
000000c0: 7bb0 39bd 9c50 23be f6cb e2bd f077 0e3e
000000d0: a9c1 a7bf eaf0 b03d 84a4 1ac0 1543 d63d
000000e0: 644d d13d 738e 133d 383b 0dbc 408c e63d
000000f0: 39af ab3d 142c 513c 67ab 00bd 5e2b a6bf
00000100: 6660 59bd 26c5 8ebd 93e4 9bbe c6f7 88bd
00000110: 2318 edbd 14de 4abd 8c68 0d3d ad39 2ebd
00000120: 3e9d d1bc 0a30 4dbf bbd3 4fbe 4d13 fc3d
00000130: d8fb 293d 9744 03c0 d054 3fbf 6873 f8bc
00000140: fdbe b3bd 13e2 24bf 3acd cf3d bea4 173d
00000150: 1d82 8c3e 75aa 63be 1816 33bd 30d9 463e
00000160: 1d0b 583d 6100 813d 444f e73e bb7e 00be
00000170: 6862 dabf 58d1 5c3d ed85 713b d357 86bd
00000180: 2250 193c 8e36 97bd ad32 e63c bb4c 79be
00000190: ef66 f4be 1c02 00bf 41bd ef3c 7823 0d3d
000001a0: 950f ab3d 7818 c3bd ca95 5fbe 93eb c83d
000001b0: f033 74bb 97ce 97be fd27 d3bd 7f75 823e
000001c0: 36d2 873d a500 82be 0c08 153d 89c2 39be
000001d0: fdb7 99be e7ed 70be dcd3 31be 7572 e0bb
000001e0: 9ca8 a93d 85be a93d 026d 09be 4a1a 5cbe
000001f0: 8fe3 83bf 5f06 c1bc eff8 a73d 2e1c 85be
-0.05924717 -1.5938455 -0.06057822 -0.27425584 -1.1913389 -0.12106993 -0.04402158 0.050263036
0.13397416 -0.0032799216 0.103500456 -0.01417242 -0.11892834 0.05848147 -0.39056805 -0.44605368
0.1577723 -2.1869774 -0.1136816 -0.4880981 -0.2094096 0.07623517 -0.39370054 0.17275564
-0.6779018 -0.6277672 -0.45495945 0.04901624 0.007162872 -0.12222884 0.01648525 0.116159916
0.043956704 -0.6404099 -0.052726984 0.12435251 0.054322783 0.084262066 -0.10299284 0.1344526
-0.016653894 -0.13765155 -0.055484056 -0.039414696 -0.061413694 0.048574038 0.1511929 0.14674972
-0.04533432 -0.15948719 -0.11074059 0.1391294 -1.3105975 0.08639701 -2.4162912 0.10462014
0.10219839 0.036024522 -0.008620076 0.11257219 0.083830304 0.012766857 -0.031413462 -1.2981985
-0.05307045 -0.06971197 -0.30447826 -0.06687884 -0.11576869 -0.049528196 0.03452353 -0.042535473
-0.025587674 -0.80151427 -0.20295613 0.12308369 0.041499943 -2.0510614 -0.7473879 -0.030328467
-0.087766625 -0.6440746 0.10146566 0.037022345 0.2744302 -0.22232993 -0.043722242 0.19418788
0.052744973 0.062989004 0.45177662 -0.12548344 -1.7061281 0.053910583 0.0036853508 -0.0655972
0.009357484 -0.07383452 0.028100336 -0.24345677 -0.47734782 -0.5000322 0.029265048 0.034457654
0.083525814 -0.095261514 -0.21834484 0.09810557 -0.0037262402 -0.29649803 -0.103103615 0.25480267
0.066318914 -0.25391117 0.036384627 -0.18140616 -0.30023184 -0.23528253 -0.17365974 -0.006849582
0.08284113 0.08288292 -0.1342049 -0.21494403 -1.030382 -0.023562608 0.08201777 -0.25998062

conv2.weight f4 [64, 128, 1, 1]
00000000: 2dd5 a03d 7634 f33a 6271 1b39 6499 dc3b
00000010: e66a 823c f49a 32bc acdb 13ba 2ec5 c8bd
00000020: bc79 18bc e47e 543d 741e 21bc 438e 9dbd
00000030: 3417 093b a543 42bb 6776 12bb 6328 8a3b
00000040: 4e7b 5a3b eb77 18bb abf2 8cb9 e72a a03a
00000050: 0e77 93bc d768 5dbe 4a82 463c a80f a4bb
00000060: 6beb 5c3c a70d 0ebc d2f5 8d3a e6b8 e3bb
00000070: f9fe c1bb cdfa d83b 6850 8cbd 8aff 213d
00000080: 4c5c 32bc 07b7 36bb 7cbc 29bc 8a9c 3cbc
00000090: b6ff 2cbb 7400 8cbb 22fa 2a3b 48f5 e73b
000000a0: bef1 0939 9a0d 693b 837e 733b f97f 60bc
000000b0: 757f a3bc 6932 b73d 7cd6 fabb b3a0 5d3c
000000c0: c6e9 98ba 91be 6abb 028e 8fbb 47b4 103d
000000d0: 3869 883a 6522 99bc b79f 203c 14ef 59bd
000000e0: 9479 37bc 052e 05bd 898c 843c 4bc4 1dbd
000000f0: 6fea b8bc 1fe0 f53c fd51 c1bd 0b20 373d
00000100: 9df6 293b c92e bf3b d078 093b b492 8bbc
00000110: df7a 83ba 09b9 8a3d 52b9 1fbc 0ee1 223a
00000120: 1d50 0abc f5ab 3538 95db dbb9 2dc4 acbc
00000130: db41 483e a7c0 103c c4a5 223c 0fda 45bb
00000140: f5b8 27b9 33d8 ec3b beed 92bb a5ac afb9
00000150: 6d23 173b 279c ca3a f3e1 e53b fc4d 373b
00000160: 607a eb3c 43d6 083f eb30 4c3c ca91 e8b9
00000170: 173b 57bb f739 d7be c9c6 b03f bd29 9dbc
00000180: a30f b6bd f1c5 51bb adcf 9b3d 849e a03a
00000190: 6e13 1cbc 198d 933a 35cb 0cbc b41e f6ba
000001a0: 95d3 56be 1676 ed3a f387 27ba 161d 87bb
000001b0: 0e62 bbbb bf30 b3bc 2eac 9f3a 1dce 01bd
000001c0: a3bf 033d b4f1 b43c 45b0 3ebe cff6 d6ba
000001d0: e23a 23bc cfe8 a7ba f3e7 8cbd e3a1 3e3c
000001e0: 8238 7e3c 76af a9bd e74e d73a 69ed 6c3b
000001f0: dae0 ecba 963e 613b a6a1 5a3d 65c2 43bb
00000200: a4ff 87bd e58f c2bd eeb5 e3be 7b9a 75be
00000210: 44bc 9b3e 1ca6 d7be 401e 28be 5fab cb3e
00000220: 55bc bfbe d711 c53c 8132 5abf da2a 2a3d
00000230: 7cd4 403d a3dc 823e fa19 483c d878 aebe
00000240: bc46 28be df4d 0fc0 cea6 4e3e 6b36 073f
00000250: 6d80 ac3e 5caf 7a3f ada1 263e c40d 923e
00000260: cf0e 72bd 9a8e a4be 3c43 4dbe f361 14bf
00000270: 3049 48bd 26b1 85be 5954 20bf 6e55 d43e
00000280: 2133 6cc0 3099 13bf 3096 89bd 01c0 13bd
00000290: 089a d83d 0be4 883e 5b6a 50bf a4bc 8b3e
000002a0: 6f51 eabd a9ef 7a3e 946d cb3e c688 8fbe
000002b0: 7d04 25be ff7f 10c0 4c95 2f3d 5241 f13d
000002c0: 871c 07bf b502 88be 37da bbbe ba66 a63d
000002d0: 2b2c e0be 5de1 ab3b dc59 ac3d 2904 943e
000002e0: 5495 d4be f7eb 0bbf 9932 c3be b23a 033e
000002f0: f789 33bf 166a d3bd aa77 593e 39f8 cfbd
00000300: c0ee 7abf 1ec6 09bf 9319 7a3e 7fc1 213d
00000310: 317d dc3d 4601 933d 3f77 afbe f516 55be
00000320: ece6 d0be ef62 193e e93b 87bf 7e25 e0bf
00000330: 3e74 633f 221b 05c0 a597 ccbf 4ec5 30bf
00000340: f030 863e b591 00bf cae9 abbe 52dd 2ebd
00000350: 90e4 b8be 23ca 613e 13e9 b23c 372e 51be
00000360: 2de5 db3d 7ef3 013e 65f4 8c3e 36e7 233e
00000370: c610 44bf 80d8 963d ac4c 87be 6d99 41bc
00000380: cfac 6dbd ee9a 45bf 4726 5b3e 3178 9dbf
00000390: 2321 493e b2a7 ee3e d2db 7cbe 3b43 bdbe
000003a0: 4800 02bf 3ce9 173f 113c af3e ea16 9fbd
000003b0: e5b1 babe a3ee ca3e 8f29 d33c 5adc cbbe
000003c0: b17b df3e 8a9e 1e3f 8922 55be f4f5 6cbf
000003d0: d9ec 613e 1b23 d8be b8ca c6bd fceb ca3e
000003e0: 670b 0ec0 ea7f 643e 046c e8be df3e 9e3d
000003f0: 2bb2 28c0 0875 d7bd 5dc0 5bbe d710 6bbf
0.0785316 0.0018555063 0.0001482419 0.006732153 0.015920114 -0.0109012015 -0.00056403386 -0.09803234
-0.0093063675 0.051878825 -0.009833921 -0.0769315 0.002091837 -0.002964237 -0.0022348405 0.0042162403
0.0033337655 -0.0023264836 -0.00026883683 0.0012219817 -0.018001106 -0.21622024 0.012116024 -0.005006749
0.013483862 -0.008670247 0.0010830706 -0.006949532 -0.0059202877 0.0066216947 -0.06851274 0.03955034
-0.010886263 -0.002788009 -0.01035988 -0.011511931 -0.0026397533 -0.004272515 0.0026089032 0.0070788004
0.00013155394 0.0035561086 0.0037154264 -0.013702386 -0.019958237 0.08945162 -0.007654963 0.013527083
-0.001166635 -0.0035819153 -0.0043809423 0.035328176 0.0010407334 -0.018693158 0.009803704 -0.05320652
-0.01119842 -0.03251459 0.016180294 -0.038517278 -0.022572724 0.030014096 -0.09439466 0.044708293
0.0025934346 0.0058344346 0.002097655 -0.017037727 -0.0010031125 0.06773574 -0.009748774 0.00062133453
-0.008441952 4.331391e-05 -0.00041934536 -0.021089638 0.19556372 0.008834994 0.009927217 -0.0030189788
-0.00015995263 0.0072279214 -0.0044839075 -0.0003350723 0.0023061887 0.0015457914 0.0070154606 0.0027970066
0.028744876 0.5345194 0.012462835 -0.0004435911 -0.0032841617 -0.4203641 1.3810664 -0.019184941
-0.08889701 -0.0032008851 0.076079704 0.0012254273 -0.009526117 0.001125726 -0.00859337 -0.0018777461
-0.2097915 0.0018116857 -0.00063908024 -0.0041233404 -0.005718476 -0.02187383 0.0012182051 -0.031690706
0.03216518 0.02208791 -0.18621929 -0.0016400459 -0.009962769 -0.0012810471 -0.06880178 0.0116352765
0.015516402 -0.0828542 0.0016426713 0.003615225 -0.0018072382 0.003436958 0.053376816 -0.0029870507
-0.066405565 -0.09500102 -0.4447474 -0.23984711 0.30417073 -0.4211892 -0.1641779 0.39779183
-0.37448373 0.024056358 -0.8523331 0.041544773 0.04707764 0.25558957 0.012213225 -0.3407657
-0.16433233 -2.2391279 0.20180818 0.5281741 0.3369173 0.9792383 0.16272612 0.28526127
-0.059096154 -0.32140046 -0.20045179 -0.5796196 -0.048897922 -0.26111716 -0.62628704 0.41471428
-3.6906207 -0.5765562 -0.06718099 -0.03607178 0.10576254 0.26736483 -0.81412286 0.2729236
-0.114413135 0.24505486 0.3973204 -0.28034037 -0.16114993 -2.2578123 0.04286699 0.11780037
-0.52777904 -0.26564565 -0.36689922 0.08125062 -0.43783697 0.0052453713 0.08415577 0.28909424
-0.41520178 -0.5465693 -0.3812454 0.12815359 -0.7013239 -0.10322969 0.21237054 -0.101547666
-0.98020554 -0.5381793 0.24423818 0.039491173 0.10766066 0.07177977 -0.34270665 -0.20809539
-0.4080118 0.14979146 -1.0565158 -1.7511442 0.88849247 -2.079781 -1.5983778 -0.69051063
0.2620921 -0.5022233 -0.33576804 -0.042691536 -0.3611188 0.22049765 0.021839654 -0.20427786
0.10737071 0.12690541 0.27530208 0.16006169 -0.76588094 0.07365513 -0.26425683 -0.011816365
-0.05802613 -0.7718953 0.2140132 -1.2302305 0.19641547 0.46612316 -0.2469323 -0.36965355
-0.5078168 0.5934026 0.34225515 -0.077680424 -0.36463848 0.3963519 0.025776653 -0.39816552
0.43649057 0.6196066 -0.20813955 -0.92562795 0.22063006 -0.42214283 -0.09706634 0.39633167
-2.219446 0.2231442 -0.4539491 0.077268355 -2.6358745 -0.10520369 -0.214601 -0.9182257

conv2.bias f4 [64]
00000000: 735d ebb9 d246 b8bd 8752 d5bc 151b cbbb
00000010: 0f6b 5ebb 0885 01be dd0c 90bd d81a 50bc
00000020: 4cb9 85bb b5b1 e5bb 86ac ddbc 8f05 eebc
00000030: f587 a5b9 26c1 e8bc 6add 8dbd afa0 7abd
00000040: ac18 bcbb fc0b 01bd 87bb 7abd f93c c4bb
00000050: 0929 d9be 756b 8cbd 0dc7 37bd 87e2 7abd
00000060: 07cb c03b d223 013c 64d6 bebb b1d2 62bd
00000070: 86ed 9dbc 3f16 a4bf 7908 99be 734c cdbb
00000080: 59f7 9dbc 6fcd 203b 74e8 98bd be55 4dbd
00000090: e2a5 9bba 7f0b 3fbb 56df ecba 38a7 6dbf
000000a0: c60b d23b ea7a 8dbe 28de 18be 50b1 07bd
000000b0: b357 25bb bb8f c1bc 432e babc 384c 9cbc
000000c0: 3e3e 88bd ce7b 61bc 6375 5cbb 095b 2abd
000000d0: ca3b 0ebf ad05 30bf f74a aa3b 2bc7 83bd
000000e0: 3d36 c4be c209 e1bc d749 aebd 6ebf 5bba
000000f0: 39a0 6bbd c9ef 81bb 2d5f d5bd cab5 92bc
-0.00044892318 -0.08997883 -0.026040329 -0.006198297 -0.0033938324 -0.12648404 -0.070337035 -0.012701713
-0.004080927 -0.0070097097 -0.027059805 -0.029055385 -0.00031572548 -0.028412413 -0.06926997 -0.061188396
-0.005740246 -0.03150557 -0.061213996 -0.005988714 -0.4241412 -0.06856433 -0.044867564 -0.06125119
0.0058835777 0.007882075 -0.005823897 -0.055376712 -0.019278299 -1.2819289 -0.29889277 -0.006265217
-0.019282984 0.002453651 -0.07466212 -0.0501306 -0.0011874998 -0.002915114 -0.001807193 -0.9283328
0.006410095 -0.27632838 -0.14928496 -0.033128083 -0.0025229275 -0.023628106 -0.022727137 -0.019079313
-0.06652497 -0.0137624275 -0.0033639304 -0.041590724 -0.5555998 -0.6875866 0.005196925 -0.06434473
-0.3832263 -0.027470473 -0.085101776 -0.0008382712 -0.057525847 -0.003965352 -0.10418544 -0.01790895

conv3.weight f4 [3, 64, 5, 5]
00000000: 0296 4e3b 4ede 7f3c b9fc 0b3d 1548 24bc
00000010: e4fb 3fbd cd3a f1b9 cacc 7c3b 4cd0 e7b8
00000020: c33b 31bc fb68 07bd 269a 2d3b 0dfb 233b
00000030: d64c c3bc 6acb c43c f7c5 233d 86e6 9e3c
00000040: 58c2 8dbc d339 3dbc b730 98b8 d93f 1ebc
00000050: e392 83ba d770 9ebd 8f3d f1bd 81bf 88bd
00000060: 9df5 24bd e8fe a43c 8f55 1b3c 20b9 103c
00000070: 2f2f 8c3b 2dc5 e0ba 978e 373d e434 093d
00000080: 0f93 b13c 6c6c 783c 0831 af3b 4422 40bd
00000090: 9b1a 07bd 4824 cfbc 888a 92bc f836 67bc
000000a0: 5405 90bc e1c9 eebc ee05 14bd a663 06bd
000000b0: f68a 1ebd 6f60 5e3c b40a b93c 264c fe3c
000000c0: c0dd 093d 1a7e 113d 63f9 12bc a821 ecbb
000000d0: ae7e 043d 8e5a 0c3c 4a26 22bc 6811 853d
000000e0: 480b 193e d1bc bf3d 7675 5c3c a6e1 52bc
000000f0: f8b3 d43d aa93 7b3e a495 dd3d 4c8d e23b
00000100: efab bbbb 3f10 e13c 8879 d33d 2bb5 8b3d
00000110: 85ce dc3c e7d5 9d3c 44b0 30bd c1fb 2fbd
00000120: 9d30 25bd 7968 a9bb a7cb 903b 4829 8ebc
00000130: 0e24 4abd 3a10 0dbe fc69 8dbe 2164 a6be
00000140: 4afd 0bbb 279e c4bc 521a 05be 9b6b 92be
00000150: 22af a4be f8e2 e83b 71e0 70bc 02e1 c1bd
00000160: 085b 39be 9c55 6bbe 120e 23b8 437e d6bc
00000170: 7f38 73bd 36ed 91bd 0cd9 d7bd 2af4 d0bb
00000180: 6fa3 873a cb49 aa3b af2e abbb 3639 1bbc
00000190: ae33 e1bc 40d0 00bd 8c59 09bd b1d3 a9bc
000001a0: 479c 91bb 053e 0c3d 4616 003d 70dd c53c
000001b0: c02b ae3c 134c 353c 3131 9e3c 0ca5 9f3c
000001c0: 9249 483c e265 643c f53a 043c eb99 2ebc
000001d0: a9bc 23bc 108c 32bc f3d2 8fbb 853f 19bc
000001e0: d487 9dbb 0a02 53bb d938 f7bb e3a5 073a
000001f0: e58f d6ba 516b a1bb 9336 a6bb 0bf3 333c
00000200: aaba 25bc a460 913c edd2 0d3b 2d23 9a3c
00000210: f133 9ebc 53f9 35bd 3d20 0d3d b486 393c
00000220: 9500 aa3c 83d6 19bd 572e 18bc 3bef d33c
00000230: 6d30 af3b 0860 233c 5db7 26bb 420f e43b
00000240: b66b 4dbc 715a 193a fd0e 9ebb 0846 2b3c
00000250: 5e90 463c 7b0c e3bb a233 21bc 2d49 54bc
00000260: 9418 c63b 0af3 fa3c d765 d1bc 775e a1bb
00000270: 7a41 a5bc 56d7 c93c ab1a 153d 1ae5 0fbd
00000280: c4c3 e7bb b488 e9bc 3463 063d 8079 6b3c
00000290: 53cf 85bc f818 51bc e2ce acbc cb15 453c
000002a0: 9738 0d3b 8b4f db3b 9f0c 1bbc ea0d f4ba
000002b0: 0acd 26bb 6ab6 97bb 9582 b53b 826b 163c
000002c0: 7cb1 333d 10d5 c2bc c973 72bc 0294 debc
000002d0: 1907 57bc 236f 08bd 0a32 75bc 794d 68bc
000002e0: 9a20 783c 46c4 09bd a798 2bbc 4fb9 733d
000002f0: 07c0 11bc d48e c63b e560 943b f029 1ebd
00000300: c3d0 c6bc 3f7b 7b3a c369 333d 95e1 b9bc
00000310: d645 153c 725b 3fbc 6099 0fba 89cf 16bb
00000320: cc30 19bd 40e2 d7bc 8473 a0bc 8cdf e3bb
00000330: 6876 cab9 f1b1 9cbc 95df 06bd 0bd6 3bbd
00000340: d3fe d9bc 363a 46bc 0326 dabc c038 babd
00000350: 9c65 dcbd 2587 9cbd 5738 ccbc 8968 05bd
00000360: f159 b7bd 48fa 0cbe a875 adbd 0068 49bc
00000370: 0d3a 74bd eb2d 97bd 4e8c e8bd 734f 60bd
00000380: 1080 69bb ef12 86bc 61a2 bebc 83b8 33bc
00000390: d94d 0f3c ce39 603c b91e bc3d 5812 bf3c
000003a0: 3252 fcbc 1317 73bb 73ef f33c 0e02 4a3e
000003b0: 5d0a 1a3e 36de 0f3d b558 0c3c 8c6f e73c
000003c0: 033c 803e 49f4 753e 4ee5 103e 4d23 f43c
000003d0: 65de 863c 67e1 843e 4c87 843e 62a4 2b3e
000003e0: 6d77 3e3d 3eae 403b 7479 10ba 26f9 33be
000003f0: fab1 0ebe 7921 3fbc 0c98 8a3d f7db 9e3c
0.0031522517 0.015616966 0.034176562 -0.010026951 -0.04687108 -0.00046010912 0.0038574212 -0.00011053737
-0.010817471 -0.0330591 0.0026489585 0.0025021464 -0.02384035 0.024022777 0.039983716 0.019397032
-0.017304584 -0.011549431 -7.256999e-05 -0.009658777 -0.0010038282 -0.07736366 -0.117793195 -0.066771515
-0.040273298 0.02014108 0.009480848 0.0088332 0.0042780857 -0.0017148607 0.04481372 0.033497706
0.021676568 0.015162569 0.005346421 -0.04690768 -0.032984357 -0.025285855 -0.017888322 -0.014112227
-0.017580666 -0.029148998 -0.036138467 -0.032809876 -0.038706742 0.013572796 0.022588111 0.03104217
0.033658743 0.03552065 -0.008970591 -0.0072061606 0.032347374 0.008566512 -0.009896824 0.064974606
0.1494571 0.09362186 0.013455739 -0.012871182 0.10385889 0.24568048 0.10819557 0.0069138166
-0.005727283 0.027473567 0.103259146 0.068216644 0.026953945 0.019267036 -0.04313685 -0.0429647
-0.040329564 -0.005169925 0.0044188085 -0.017353669 -0.04935079 -0.13775721 -0.27619922 -0.32498267
-0.002136069 -0.024001194 -0.12998322 -0.2859772 -0.32164866 0.007107135 -0.0147019485 -0.09466745
-0.18101132 -0.22981876 -3.8875332e-05 -0.026183253 -0.05938005 -0.071253225 -0.10539445 -0.006376763
0.001034839 0.005196785 -0.005224071 -0.009474089 -0.027490463 -0.031448603 -0.033532664 -0.020730825
-0.0044436785 0.034238834 0.03127124 0.024153441 0.021261096 0.011065501 0.019310566 0.01948788
0.012224572 0.013940306 0.008070697 -0.010656814 -0.009993711 -0.010897651 -0.004389161 -0.009353523
-0.0048074517 -0.003219726 -0.0075446186 0.00051745604 -0.0016369788 -0.004926123 -0.0050724237 0.010983239
-0.010115305 0.017746277 0.0021640614 0.018815601 -0.019311877 -0.044427227 0.034454573 0.01132362
0.02075223 -0.03755809 -0.009288392 0.02587091 0.005346349 0.009971626 -0.0025438883 0.0069598267
-0.012537887 0.00058499636 -0.004823564 0.0104537085 0.012119381 -0.006928978 -0.00983897 -0.0129569
0.0060454104 0.030633468 -0.025561256 -0.004924591 -0.020172823 0.024638813 0.036402386 -0.035130598
-0.0070728976 -0.028507568 0.03280945 0.01437223 -0.016334211 -0.012762301 -0.021094743 0.012029122
0.0021548623 0.006692832 -0.009463458 -0.0018619869 -0.0025451803 -0.0046298997 0.005539248 0.009180905
0.043870434 -0.023783237 -0.014798113 -0.027170185 -0.013124251 -0.033309113 -0.0149655435 -0.014178627
0.015144492 -0.033634447 -0.010473407 0.059502896 -0.008895881 0.006059507 0.0045281523 -0.038614213
-0.024269467 0.0009593255 0.043802034 -0.022690574 0.0091108885 -0.011679517 -0.0005477872 -0.0023011884
-0.037400052 -0.026353002 -0.019586332 -0.006954139 -0.00038616662 -0.019127818 -0.03292807 -0.045858424
-0.026610767 -0.0120988395 -0.026629454 -0.090928555 -0.10761568 -0.07642964 -0.024929209 -0.032570396
-0.08952702 -0.1376735 -0.08469707 -0.012292862 -0.059625674 -0.07381805 -0.11354886 -0.05476327
-0.003562931 -0.01636645 -0.023270788 -0.010969284 0.008746588 0.013685657 0.091855474 0.023324177
-0.030800913 -0.003709261 0.029777264 0.19727346 0.15043016 0.035124026 0.008566071 0.028251432
0.25045785 0.24018969 0.14149973 0.029801989 0.016463468 0.25953218 0.25884473 0.16761926
0.046500612 0.0029400731 -0.0005511262 -0.17575511 -0.1393508 -0.011665695 0.06767282 0.019391997

conv3.bias f4 [3]
00000000: 7807 a9bb 8152 a83b 1273 3f38
-0.005158361 0.0051367884 4.5645116e-05

exp_avg f4 [128, 3, 9, 9]
00000000: 0400 0000 0400 0000 0400 0000 0400 0000
00000010: 0400 0000 0400 0000 0400 0000 0400 0000
00000020: 0400 0000 0400 0000 0400 0000 0400 0000
00000030: 0400 0000 0400 0000 0400 0000 0400 0000
00000040: 0400 0000 0400 0000 0400 0000 0400 0000
00000050: 0400 0000 0400 0000 0400 0000 0400 0000
00000060: 0400 0000 0400 0000 0400 0000 0400 0000
00000070: 0400 0000 0400 0000 0400 0000 0400 0000
00000080: 0400 0000 0400 0000 0400 0000 0400 0000
00000090: 0400 0000 0400 0000 0400 0000 0400 0000
000000a0: 0400 0000 0400 0000 0400 0000 0400 0000
000000b0: 0400 0000 0400 0000 0400 0000 0400 0000
000000c0: 0400 0000 0400 0000 0400 0000 0400 0000
000000d0: 0400 0000 0400 0000 0400 0000 0400 0000
000000e0: 0400 0000 0400 0000 0400 0000 0400 0000
000000f0: 0400 0000 0400 0000 0400 0000 0400 0000
00000100: 0400 0000 0400 0000 0400 0000 0400 0000
00000110: 0400 0000 0400 0000 0400 0000 0400 0000
00000120: 0400 0000 0400 0000 0400 0000 0400 0000
00000130: 0400 0000 0400 0000 0400 0000 0400 0000
00000140: 0400 0000 0400 0000 0400 0000 0400 0000
00000150: 0400 0000 0400 0000 0400 0000 0400 0000
00000160: 0400 0000 0400 0000 0400 0000 0400 0000
00000170: 0400 0000 0400 0000 0400 0000 0400 0000
00000180: 0400 0000 0400 0000 0400 0000 0400 0000
00000190: 0400 0000 0400 0000 0400 0000 0400 0000
000001a0: 0400 0000 0400 0000 0400 0000 0400 0000
000001b0: 0400 0000 0400 0000 0400 0000 0400 0000
000001c0: 0400 0000 0400 0000 0400 0000 0400 0000
000001d0: 0400 0000 0400 0000 0400 0000 0400 0000
000001e0: 0400 0000 0400 0000 0400 0000 0400 0000
000001f0: 0400 0000 0400 0000 0400 0000 0400 0000
00000200: 0400 0000 0400 0000 0400 0000 0400 0000
00000210: 0400 0000 0400 0000 0400 0000 0400 0000
00000220: 0400 0000 0400 0000 0400 0000 0400 0000
00000230: 0400 0000 0400 0000 0400 0000 0400 0000
00000240: 0400 0000 0400 0000 0400 0000 0400 0000
00000250: 0400 0000 0400 0000 0400 0000 0400 0000
00000260: 0400 0000 0400 0000 0400 0000 0400 0000
00000270: 0400 0000 0400 0000 0400 0000 0400 0000
00000280: 0400 0000 0400 0000 0400 0000 0400 0000
00000290: 0400 0000 0400 0000 0400 0000 0400 0000
000002a0: 0400 0000 0400 0000 0400 0000 0400 0000
000002b0: 0400 0000 0400 0000 0400 0000 0400 0000
000002c0: 0400 0000 0400 0000 0400 0000 0400 0000
000002d0: 0400 0000 0400 0000 0400 0000 0400 0000
000002e0: 0400 0000 0400 0000 0400 0000 0400 0000
000002f0: 0400 0000 0400 0000 0400 0000 0400 0000
00000300: 0400 0000 0400 0000 0400 0000 0400 0000
00000310: 0400 0000 0400 0000 0400 0000 0400 0000
00000320: 0400 0000 0400 0000 0400 0000 0400 0000
00000330: 0400 0000 0400 0000 0400 0000 0400 0000
00000340: 0400 0000 0400 0000 0400 0000 0400 0000
00000350: 0400 0000 0400 0000 0400 0000 0400 0000
00000360: 0400 0000 0400 0000 0400 0000 0400 0000
00000370: 0400 0000 0400 0000 0400 0000 0400 0000
00000380: 0400 0000 0400 0000 0400 0000 0400 0000
00000390: 0400 0000 0400 0000 0400 0000 0400 0000
000003a0: 0400 0000 0400 0000 0400 0000 0400 0000
000003b0: 0400 0000 0400 0000 0400 0000 0400 0000
000003c0: 0400 0000 0400 0000 0400 0000 24d5 d0b4
000003d0: fdab ebb4 e6c9 73b4 2190 51b4 5d06 d5b4
000003e0: 435a 06b5 9c15 c3b4 d03d 9fb4 36f7 b9b4
000003f0: 32dd b6b4 087f d6b4 9b3e 4cb4 1d5b 47b4
6e-45 6e-45 6e-45 6e-45 6e-45 6e-45 6e-45 6e-45
6e-45 6e-45 6e-45 6e-45 6e-45 6e-45 6e-45 6e-45
6e-45 6e-45 6e-45 6e-45 6e-45 6e-45 6e-45 6e-45
6e-45 6e-45 6e-45 6e-45 6e-45 6e-45 6e-45 6e-45
6e-45 6e-45 6e-45 6e-45 6e-45 6e-45 6e-45 6e-45
6e-45 6e-45 6e-45 6e-45 6e-45 6e-45 6e-45 6e-45
6e-45 6e-45 6e-45 6e-45 6e-45 6e-45 6e-45 6e-45
6e-45 6e-45 6e-45 6e-45 6e-45 6e-45 6e-45 6e-45
6e-45 6e-45 6e-45 6e-45 6e-45 6e-45 6e-45 6e-45
6e-45 6e-45 6e-45 6e-45 6e-45 6e-45 6e-45 6e-45
6e-45 6e-45 6e-45 6e-45 6e-45 6e-45 6e-45 6e-45
6e-45 6e-45 6e-45 6e-45 6e-45 6e-45 6e-45 6e-45
6e-45 6e-45 6e-45 6e-45 6e-45 6e-45 6e-45 6e-45
6e-45 6e-45 6e-45 6e-45 6e-45 6e-45 6e-45 6e-45
6e-45 6e-45 6e-45 6e-45 6e-45 6e-45 6e-45 6e-45
6e-45 6e-45 6e-45 6e-45 6e-45 6e-45 6e-45 6e-45
6e-45 6e-45 6e-45 6e-45 6e-45 6e-45 6e-45 6e-45
6e-45 6e-45 6e-45 6e-45 6e-45 6e-45 6e-45 6e-45
6e-45 6e-45 6e-45 6e-45 6e-45 6e-45 6e-45 6e-45
6e-45 6e-45 6e-45 6e-45 6e-45 6e-45 6e-45 6e-45
6e-45 6e-45 6e-45 6e-45 6e-45 6e-45 6e-45 6e-45
6e-45 6e-45 6e-45 6e-45 6e-45 6e-45 6e-45 6e-45
6e-45 6e-45 6e-45 6e-45 6e-45 6e-45 6e-45 6e-45
6e-45 6e-45 6e-45 6e-45 6e-45 6e-45 6e-45 6e-45
6e-45 6e-45 6e-45 6e-45 6e-45 6e-45 6e-45 6e-45
6e-45 6e-45 6e-45 6e-45 6e-45 6e-45 6e-45 6e-45
6e-45 6e-45 6e-45 6e-45 6e-45 6e-45 6e-45 6e-45
6e-45 6e-45 6e-45 6e-45 6e-45 6e-45 6e-45 6e-45
6e-45 6e-45 6e-45 6e-45 6e-45 6e-45 6e-45 6e-45
6e-45 6e-45 6e-45 6e-45 6e-45 6e-45 6e-45 6e-45
6e-45 6e-45 6e-45 -3.88981e-07 -4.38973e-07 -2.2704589e-07 -1.9517076e-07 -3.9678972e-07
-5.005024e-07 -3.6337303e-07 -2.9661032e-07 -3.4638805e-07 -3.4061082e-07 -3.9953034e-07 -1.9021756e-07 -1.8566466e-07

exp_avg_sq f4 [128, 3, 9, 9]
00000000: f401 0000 f401 0000 f401 0000 f401 0000
00000010: f401 0000 f401 0000 f401 0000 f401 0000
00000020: f401 0000 f401 0000 f401 0000 f401 0000
00000030: f401 0000 f401 0000 f401 0000 f401 0000
00000040: f401 0000 f401 0000 f401 0000 f401 0000
00000050: f401 0000 f401 0000 f401 0000 f401 0000
00000060: f401 0000 f401 0000 f401 0000 f401 0000
00000070: f401 0000 f401 0000 f401 0000 f401 0000
00000080: f401 0000 f401 0000 f401 0000 f401 0000
00000090: f401 0000 f401 0000 f401 0000 f401 0000
000000a0: f401 0000 f401 0000 f401 0000 f401 0000
000000b0: f401 0000 f401 0000 f401 0000 f401 0000
000000c0: f401 0000 f401 0000 f401 0000 f401 0000
000000d0: f401 0000 f401 0000 f401 0000 f401 0000
000000e0: f401 0000 f401 0000 f401 0000 f401 0000
000000f0: f401 0000 f401 0000 f401 0000 f401 0000
00000100: f401 0000 f401 0000 f401 0000 f401 0000
00000110: f401 0000 f401 0000 f401 0000 f401 0000
00000120: f401 0000 f401 0000 f401 0000 f401 0000
00000130: f401 0000 f401 0000 f401 0000 f401 0000
00000140: f401 0000 f401 0000 f401 0000 f401 0000
00000150: f401 0000 f401 0000 f401 0000 f401 0000
00000160: f401 0000 f401 0000 f401 0000 f401 0000
00000170: f401 0000 f401 0000 f401 0000 f401 0000
00000180: f401 0000 f401 0000 f401 0000 f401 0000
00000190: f401 0000 f401 0000 f401 0000 f401 0000
000001a0: f401 0000 f401 0000 f401 0000 f401 0000
000001b0: f401 0000 f401 0000 f401 0000 f401 0000
000001c0: f401 0000 f401 0000 f401 0000 f401 0000
000001d0: f401 0000 f401 0000 f401 0000 f401 0000
000001e0: f401 0000 f401 0000 f401 0000 f401 0000
000001f0: f401 0000 f401 0000 f401 0000 f401 0000
00000200: f401 0000 f401 0000 f401 0000 f401 0000
00000210: f401 0000 f401 0000 f401 0000 f401 0000
00000220: f401 0000 f401 0000 f401 0000 f401 0000
00000230: f401 0000 f401 0000 f401 0000 f401 0000
00000240: f401 0000 f401 0000 f401 0000 f401 0000
00000250: f401 0000 f401 0000 f401 0000 f401 0000
00000260: f401 0000 f401 0000 f401 0000 f401 0000
00000270: f401 0000 f401 0000 f401 0000 f401 0000
00000280: f401 0000 f401 0000 f401 0000 f401 0000
00000290: f401 0000 f401 0000 f401 0000 f401 0000
000002a0: f401 0000 f401 0000 f401 0000 f401 0000
000002b0: f401 0000 f401 0000 f401 0000 f401 0000
000002c0: f401 0000 f401 0000 f401 0000 f401 0000
000002d0: f401 0000 f401 0000 f401 0000 f401 0000
000002e0: f401 0000 f401 0000 f401 0000 f401 0000
000002f0: f401 0000 f401 0000 f401 0000 f401 0000
00000300: f401 0000 f401 0000 f401 0000 f401 0000
00000310: f401 0000 f401 0000 f401 0000 f401 0000
00000320: f401 0000 f401 0000 f401 0000 f401 0000
00000330: f401 0000 f401 0000 f401 0000 f401 0000
00000340: f401 0000 f401 0000 f401 0000 f401 0000
00000350: f401 0000 f401 0000 f401 0000 f401 0000
00000360: f401 0000 f401 0000 f401 0000 f401 0000
00000370: f401 0000 f401 0000 f401 0000 f401 0000
00000380: f401 0000 f401 0000 f401 0000 f401 0000
00000390: f401 0000 f401 0000 f401 0000 f401 0000
000003a0: f401 0000 f401 0000 f401 0000 f401 0000
000003b0: f401 0000 f401 0000 f401 0000 f401 0000
000003c0: f401 0000 f401 0000 f401 0000 ec50 002c
000003d0: 0c81 fb2b c94c c22b d54b ae2b b8b8 fd2b
000003e0: b3cb 1a2c e014 082c 165a ef2b 04b5 ab2b
000003f0: 35a3 072c 2964 072c b5b1 cf2b 8e49 b62b
7e-43 7e-43 7e-43 7e-43 7e-43 7e-43 7e-43 7e-43
7e-43 7e-43 7e-43 7e-43 7e-43 7e-43 7e-43 7e-43
7e-43 7e-43 7e-43 7e-43 7e-43 7e-43 7e-43 7e-43
7e-43 7e-43 7e-43 7e-43 7e-43 7e-43 7e-43 7e-43
7e-43 7e-43 7e-43 7e-43 7e-43 7e-43 7e-43 7e-43
7e-43 7e-43 7e-43 7e-43 7e-43 7e-43 7e-43 7e-43
7e-43 7e-43 7e-43 7e-43 7e-43 7e-43 7e-43 7e-43
7e-43 7e-43 7e-43 7e-43 7e-43 7e-43 7e-43 7e-43
7e-43 7e-43 7e-43 7e-43 7e-43 7e-43 7e-43 7e-43
7e-43 7e-43 7e-43 7e-43 7e-43 7e-43 7e-43 7e-43
7e-43 7e-43 7e-43 7e-43 7e-43 7e-43 7e-43 7e-43
7e-43 7e-43 7e-43 7e-43 7e-43 7e-43 7e-43 7e-43
7e-43 7e-43 7e-43 7e-43 7e-43 7e-43 7e-43 7e-43
7e-43 7e-43 7e-43 7e-43 7e-43 7e-43 7e-43 7e-43
7e-43 7e-43 7e-43 7e-43 7e-43 7e-43 7e-43 7e-43
7e-43 7e-43 7e-43 7e-43 7e-43 7e-43 7e-43 7e-43
7e-43 7e-43 7e-43 7e-43 7e-43 7e-43 7e-43 7e-43
7e-43 7e-43 7e-43 7e-43 7e-43 7e-43 7e-43 7e-43
7e-43 7e-43 7e-43 7e-43 7e-43 7e-43 7e-43 7e-43
7e-43 7e-43 7e-43 7e-43 7e-43 7e-43 7e-43 7e-43
7e-43 7e-43 7e-43 7e-43 7e-43 7e-43 7e-43 7e-43
7e-43 7e-43 7e-43 7e-43 7e-43 7e-43 7e-43 7e-43
7e-43 7e-43 7e-43 7e-43 7e-43 7e-43 7e-43 7e-43
7e-43 7e-43 7e-43 7e-43 7e-43 7e-43 7e-43 7e-43
7e-43 7e-43 7e-43 7e-43 7e-43 7e-43 7e-43 7e-43
7e-43 7e-43 7e-43 7e-43 7e-43 7e-43 7e-43 7e-43
7e-43 7e-43 7e-43 7e-43 7e-43 7e-43 7e-43 7e-43
7e-43 7e-43 7e-43 7e-43 7e-43 7e-43 7e-43 7e-43
7e-43 7e-43 7e-43 7e-43 7e-43 7e-43 7e-43 7e-43
7e-43 7e-43 7e-43 7e-43 7e-43 7e-43 7e-43 7e-43
7e-43 7e-43 7e-43 1.8234815e-12 1.787044e-12 1.3805841e-12 1.2384491e-12 1.8028001e-12
2.1997792e-12 1.933835e-12 1.7006975e-12 1.2200523e-12 1.9275252e-12 1.9240254e-12 1.4757558e-12 1.2952293e-12

exp_avg f4 [128]
00000000: 0400 0000 46cf 86b5 cf05 94b6 dd00 8b36
00000010: ba6c 2b35 1353 dc34 5e9b fab4 65a9 ad33
00000020: 01e0 b635 0400 0000 65f2 3836 f962 bc33
00000030: 97ef 8d36 ce4c 1335 625c 7335 47f7 a8b4
00000040: 4c51 e8b5 1490 10b5 e199 ca35 c70f 9d35
00000050: 11e5 c2b4 97e4 6d36 1f47 12b4 e21d c5b5
00000060: a229 4234 a1b5 c835 d34a 95b4 8d70 68b5
00000070: e3f4 83b4 a948 0db6 b411 c7b5 efef d9b6
00000080: d24b 6734 156e eb35 6a42 8bb4 772e 48b8
00000090: 275a 3e35 426e ceb4 0d65 ce35 7259 8f35
000000a0: 02c9 1eb5 c4e8 4b32 ced9 b034 10e8 8833
000000b0: f16c a033 a690 2b35 3f2e 0b35 b042 a635
000000c0: 0a9a 06b6 50a8 f635 2113 b434 c605 b636
000000d0: 35a3 1c35 d873 1a35 1743 9a35 0b96 c5b7
000000e0: 47ac 73b3 e56d 83b5 fe4e 8cb6 1cca ebb6
000000f0: 91e7 37b3 af7b c1b3 76e2 5034 cee1 bb34
00000100: 6522 9db6 9a06 bcb5 42c3 2cb6 0400 0000
00000110: 7bcb 2436 0400 0000 d85c 4135 b940 e735
00000120: bf1c 7d36 7fda d432 b856 6336 adb9 a2b6
00000130: 1ad5 06b4 bf6e 8eb3 410a 5733 ed41 59b4
00000140: 0431 2a34 9285 d935 db22 bb32 a4cf 4b35
00000150: fcc5 97b4 ba5e 11b6 0400 0000 bdac 4735
00000160: 34e8 92b5 1ee9 67b6 0138 67b6 a85d a436
00000170: a0bc a1b5 ef18 e2b4 3959 a3b5 0400 0000
00000180: 053f 77b4 afbb 5eb6 feb9 41b5 68f5 d534
00000190: 91a6 6f35 5e3f 85b5 62c0 6f34 9697 ef33
000001a0: fef8 26b6 fad5 f534 6c50 fcb4 2f80 bfb7
000001b0: 1fcc bd34 58fc 84b5 61ee a335 a95c 38b6
000001c0: e1dc 1136 ef3c acb4 7590 7534 e3a3 fab6
000001d0: 706a 5d35 3495 00b6 28b4 3d33 f6ee f2b5
000001e0: d3c9 7a35 ceaa ea34 0b8d c9b6 75d1 55b5
000001f0: a98f 1eb4 19c3 52b6 1513 21b5 f801 20b6
6e-45 -1.0044103e-06 -4.41142e-06 4.1426233e-06 6.386068e-07 4.1038638e-07 -4.6679173e-07 8.086753e-08
1.362525e-06 6e-45 2.7559229e-06 8.772435e-08 4.2300194e-06 5.4873533e-07 9.065899e-07 -3.1472356e-07
-1.7309007e-06 -5.385384e-07 1.5094957e-06 1.1702003e-06 -3.6301984e-07 3.5448809e-06 -1.3623183e-07 -1.4686341e-06
1.8082804e-07 1.4954022e-06 -2.7807855e-07 -8.659052e-07 -2.457883e-07 -2.105293e-06 -1.4831808e-06 -6.495036e-06
2.1541135e-07 1.7540902e-06 -2.593909e-07 -4.772699e-05 7.0911705e-07 -3.8450713e-07 1.5377606e-06 1.0680362e-06
-5.915209e-07 1.186908e-08 3.2941028e-07 6.3752054e-08 7.470397e-08 6.3912955e-07 5.184883e-07 1.2387372e-06
-2.0057219e-06 1.8377414e-06 3.354153e-07 5.424695e-06 5.8352026e-07 5.7538045e-07 1.149342e-06 -2.35541e-05
-5.673453e-08 -9.792244e-07 -4.181521e-06 -7.0270744e-06 -4.2818616e-08 -9.009761e-08 1.9453896e-07 3.499576e-07
-4.6829687e-06 -1.4009013e-06 -2.5743652e-06 6e-45 2.4556346e-06 6e-45 7.203321e-07 1.7229678e-06
3.771667e-06 2.4779409e-08 3.3876113e-06 -4.8495917e-06 -1.2557248e-07 -6.632535e-08 5.0067914e-08 -2.0233684e-07
1.5850316e-07 1.6206634e-06 2.1785516e-08 7.592555e-07 -2.8269994e-07 -2.1661822e-06 6e-45 7.4384644e-07
-1.0945428e-06 -3.4557374e-06 -3.445428e-06 4.898484e-06 -1.2050332e-06 -4.2113922e-07 -1.2170414e-06 6e-45
-2.3026594e-07 -3.3189824e-06 -7.2168757e-07 3.9852898e-07 8.9276824e-07 -9.927714e-07 2.2328598e-07 1.1156878e-07
-2.488086e-06 4.5790495e-07 -4.6997172e-07 -2.2828664e-05 3.535251e-07 -9.908208e-07 1.2213824e-06 -2.7472072e-06
2.1735252e-06 -3.2081832e-07 2.2869956e-07 -7.4696595e-06 8.24838e-07 -1.9160334e-06 4.4168843e-08 -1.8099952e-06
9.342595e-07 4.3710173e-07 -6.0066864e-06 -7.9653483e-07 -1.476716e-07 -3.1406e-06 -6.000494e-07 -2.3843004e-06

exp_avg_sq f4 [128]
00000000: f401 0000 cba4 282d c77b d62e 31ec bd2d
00000010: fc24 f22b 468f 922c 9c9e f72d 88be 452b
00000020: 63a8 c22c f401 0000 a09f 2e2f 8cc4 1a2e
00000030: fdb6 a22e adba a92d 8b6a 202e 3576 a22c
00000040: 0bf3 602d e38f e32c 1f11 b32e 7768 b42c
00000050: 8fb3 332c 1c74 3930 7114 a52c 2773 a72c
00000060: 9620 1a2d 38d1 de2d 022d 062c 64fe cb2e
00000070: a5a9 1e2d dde4 682d c970 da2f 0fb6 0f31
00000080: f9e4 982b b60e 012d 4bfd 1a2d 9311 d633
00000090: 403a 312c 2046 352d 8ca9 7f2e 7c31 152d
000000a0: 80e8 142d d477 582c 5c71 b82d 649e 4c2d
000000b0: 6d14 e42b 6b81 922c 314c 822e 6eab 9430
000000c0: 7680 3d2e 5eb7 212e a3ca fc2c a757 0931
000000d0: e063 0e2d c4b0 1e2f e614 242d b83d c033
000000e0: 3086 2e2c 2171 4330 325d 922e 44ff 9b31
000000f0: 94e2 cb2b 0210 872b a289 342c 74cf e52d
00000100: 1528 5f2e 700a c52e 14e9 7d2d f401 0000
00000110: 7d48 8a2d f401 0000 1958 d12c 5eac 3f2e
00000120: f3ff ab2e 5474 a92c f16c ad2d 2c4f 0f31
00000130: 3226 bf2c d04b b42c c72d 142b e1ef ff2c
00000140: f2d1 ab2c c198 a12d 2976 f42e 73e3 dc2c
00000150: 2499 e42c 9c09 8a2e f401 0000 8abd 072d
00000160: 1b04 ac30 02d2 8631 d288 d62e df7a 882e
00000170: 02f7 e32c db84 372c 1574 922f f401 0000
00000180: 623f a42d 575e ad2d e51c 932d 2770 a72c
00000190: b090 142d f620 cf2b bb83 9b2c 491c c92c
000001a0: de0d 0930 b8a4 b82c 7cee b12d 8270 0834
000001b0: c0c2 a02c e9c6 6b2c 100f 9e2e 1988 cc31
000001c0: f499 7031 c5e8 892c a6fc b72c 58be bc2e
000001d0: f2ea 242e cdf0 652e cad3 2e2b b97c 0131
000001e0: d199 b82c b166 ff2c f5b4 8a2e ca31 ed2c
000001f0: 6454 892c 861e 762e 64b7 7030 ae60 2d2e
7e-43 9.586286e-12 9.7535806e-11 2.1591702e-11 1.7205399e-12 4.165476e-12 2.8151086e-11 7.0252875e-13
5.5325063e-12 7e-43 1.5881918e-10 3.5190115e-11 7.399412e-11 1.9295976e-11 3.6474417e-11 4.6174405e-12
1.2786892e-11 6.4677027e-12 8.143019e-11 5.1275056e-12 2.5537105e-12 6.746761e-10 4.6918515e-12 4.75921e-12
8.761122e-12 2.533139e-11 1.906753e-12 9.27656e-11 9.018929e-12 1.3238491e-11 3.9734108e-10 2.0912727e-09
1.0863802e-12 7.3360675e-12 8.810129e-12 9.968348e-08 2.5185548e-12 1.030423e-11 5.8130875e-11 8.480657e-12
8.464451e-12 3.0761964e-12 2.096872e-11 1.1631227e-11 1.6206044e-12 4.163938e-12 5.92525e-11 1.081714e-09
4.308772e-11 3.6770025e-11 7.184768e-12 1.9985948e-09 8.093942e-12 1.4432816e-10 9.326961e-12 8.951923e-08
2.4801376e-12 7.110135e-10 6.655866e-11 4.540114e-09 1.4486906e-12 9.59677e-13 2.565594e-12 2.6126414e-11
5.073993e-11 8.960377e-11 1.4433139e-11 7e-43 1.5720975e-11 7e-43 5.949918e-12 4.3581465e-11
7.8216454e-11 4.816184e-12 1.9716203e-11 2.0854243e-09 5.432787e-12 5.1243246e-12 5.264369e-13 7.274168e-12
4.883421e-12 1.8371417e-11 1.1116825e-10 6.278028e-12 6.4971518e-12 6.2772204e-11 7e-43 7.715948e-12
1.2515814e-09 3.9237884e-09 9.7558975e-11 6.20639e-11 6.4791514e-12 2.6079614e-12 2.6639727e-10 7e-43
1.8672789e-11 1.9709718e-11 1.6724797e-11 4.758877e-12 8.444953e-12 1.4717383e-12 4.41999e-12 5.715904e-12
4.9860016e-10 5.247882e-12 2.0228479e-11 1.2706917e-07 4.569095e-12 3.3505926e-12 7.187684e-11 5.952654e-09
3.5012109e-09 3.919617e-12 5.2292224e-12 8.583062e-11 3.7497956e-11 5.2282446e-11 6.2111134e-13 1.8842867e-09
5.2466716e-12 7.258937e-12 6.307658e-11 6.741473e-12 3.9031434e-12 5.5961034e-11 8.7572105e-10 3.9421515e-11

exp_avg f4 [64, 128, 1, 1]
00000000: 0400 0080 0a36 deb4 0849 87b5 d9f8 5835
00000010: c031 c1b3 b20f 0734 4e54 62b5 6c7a c131
00000020: c18b 4933 0400 0000 f219 8bb6 ad35 41b2
00000030: b2fd ea34 7fd0 d2b3 ea83 fa35 8f2c 0e35
00000040: 3a31 87b3 8db5 db34 1e2c 4eb5 e009 53b4
00000050: 824e 67b2 57f9 95b6 d554 af33 3708 8d33
00000060: 0fab b1b4 aa8c b935 9890 34b4 6b1f 60b5
00000070: b79e 0135 1e76 3633 548f 3db4 a2bf c5b4
00000080: 3947 8532 442f cf2f 8c4d 15b4 8b4c 38b7
00000090: 80e0 85b5 80dd 2034 0f25 6ab5 d9e8 dcb4
000000a0: d6ae 9833 692f a833 7bef a9b4 665e 17b5
000000b0: 5763 e2b1 33e2 4eb3 c774 34b6 5c8f 22b6
000000c0: a5ae 76b4 32a0 9c35 d5d6 7eb4 8626 11b7
000000d0: 50ef 3cb5 886c 87b5 907f 1035 b205 69b7
000000e0: 60cf a133 26bb 82b4 1992 9ab6 3562 eeb5
000000f0: 7729 3431 2f2c 7332 1be0 9fb2 91cc deb2
00000100: 6215 0bb5 56d5 0f35 ad84 a034 0000 0000
00000110: db2d 9834 0400 0000 4d61 8bb4 4083 3eb6
00000120: 2bb3 9e34 bab4 e632 a1ed 0835 0848 9cb5
00000130: 0c4d 28b4 9003 67b4 f872 0bb3 1620 32b5
00000140: 08e7 7033 4d6a 6d34 f968 5eb4 d443 96b4
00000150: aeed 8c33 9fb6 25b5 0400 0000 c9a7 3cb5
00000160: 2317 ddb5 35f6 36b7 f353 3b35 15fd 85b5
00000170: 3014 8db4 6251 a231 a6d7 c7b4 0400 0080
00000180: ccae 0431 88cf 8833 8a07 1432 647b 7433
00000190: 29d2 61b4 6060 a6b2 8e78 9eb4 f706 9c33
000001a0: 807a d7b6 14ef ed32 2423 8234 215a 5cb7
000001b0: 381d e334 7989 bcb4 fb7b 65b4 9171 cdb6
000001c0: a26b 90b5 d16f 2634 60df 15b4 3642 6735
000001d0: f870 91b5 9d73 93b5 6c4e 4031 e731 9db5
000001e0: 055b 4234 42ae 83b3 c385 dab4 ec15 7ab5
000001f0: a119 78b2 fd65 eab4 d003 6fb5 479a 67b6
00000200: 0400 0000 c85d 2cb4 e3fe d1b3 5581 8434
00000210: 5eba 9db2 21c5 5831 07ca 88b5 8fb1 5d33
00000220: e029 0f34 0400 0000 a749 6d33 8ea5 34b4
00000230: 865a d134 5f9c 8eb4 4279 cab3 bce2 b3b1
00000240: 0a9f 97b3 624c 58b2 5c1c b0b5 b7f0 7f34
00000250: 2daa 02b3 ff90 da33 c637 4734 9520 65b4
00000260: 2177 0534 dd8c 55b4 5796 a431 e1d5 f8a7
00000270: ca75 ec33 98d9 40b5 5147 5d34 7834 9b34
00000280: 7416 222e 7ae5 48b2 e496 ecb4 8628 ddb4
00000290: 54e7 0d33 bd65 20b5 06e3 5ab3 9f3a 6cb3
000002a0: 89c3 d2b3 a18c d2b3 a84d 47b2 d1c6 6130
000002b0: a690 1332 390a 6bae f497 9ab5 cda5 2fb1
000002c0: ad54 d9b3 a671 9234 c9b2 42b2 2166 3e34
000002d0: 9009 9e32 02f6 1e34 2a08 2232 a393 dfb3
000002e0: d868 b032 8808 7c34 ad25 dfb3 4ae2 0a34
000002f0: 0400 0000 654a 11a4 74d0 0734 8baf 4ab2
00000300: e18e b433 b17e 2034 47f2 89b2 0400 0000
00000310: 5a55 39b5 0400 0000 f87c 3b33 c592 0f35
00000320: e537 97b4 1b76 ee32 a96a 11b2 ebde a4a9
00000330: d980 fc33 96ce 602f 8725 112e 0565 7532
00000340: 34f3 12b5 64c4 2ab4 2f73 ce33 639c 15b4
00000350: 23f2 7630 e4d0 03b5 0400 0000 5819 4833
00000360: a649 9132 335f 8434 a6c1 9a34 424a f134
00000370: e913 e9b2 dd50 d1b1 90d7 2d34 0400 0000
00000380: c5b5 f233 66b6 2434 c56b fe33 f469 f3b1
00000390: af86 21b1 0e9b ef32 d181 5e34 c254 d7b3
000003a0: a32c 0734 43de e832 3609 1ab6 4cd4 4ab3
000003b0: 8ae5 59b4 fc9b 4733 c1e4 6db5 90e6 6633
000003c0: cfe9 f334 c8f9 a9b3 1f56 db33 d3b5 1833
000003d0: 492d 61b5 2bfe 0cb4 8c04 d52f 08d2 a133
000003e0: f86f 47b2 5cd0 ab2a 59c1 60b4 4774 82b4
000003f0: d4bf 4ea5 e489 51b4 f28c a633 4c16 b0b2
-6e-45 -4.139004e-07 -1.0079539e-06 8.082839e-07 -8.996312e-08 1.2578565e-07 -8.431424e-07 5.630957e-09
4.6926065e-08 6e-45 -4.1455432e-06 -1.1246283e-08 4.3770484e-07 -9.816812e-08 1.8664844e-06 5.2963964e-07
-6.2953816e-08 4.0924024e-07 -7.680518e-07 -1.9654499e-07 -1.346382e-08 -4.469573e-06 8.1645034e-08 6.5673184e-08
-3.309328e-07 1.3824513e-06 -1.6816409e-07 -8.349222e-07 4.8287205e-07 4.2482604e-08 -1.7654139e-07 -3.683354e-07
1.5515626e-08 3.7686665e-10 -1.3904918e-07 -1.0985076e-05 -9.97461e-07 1.4981742e-07 -8.722572e-07 -4.1147612e-07
7.109854e-08 7.8317335e-08 -3.1652948e-07 -5.638925e-07 -6.5887593e-09 -4.816884e-08 -2.6890064e-06 -2.4223327e-06
-2.297407e-07 1.1669529e-06 -2.3733749e-07 -8.651643e-06 -7.0383703e-07 -1.008987e-06 5.382981e-07 -1.3889208e-05
7.534868e-08 -2.4350555e-07 -4.6065657e-06 -1.7760964e-06 2.6217017e-09 1.4154508e-08 -1.8611948e-08 -2.5937227e-08
-5.181265e-07 5.3582096e-07 2.9898857e-07 0.0 2.834557e-07 6e-45 -2.5961563e-07 -2.8388604e-06
2.9560155e-07 2.6857709e-08 5.1009744e-07 -1.164387e-06 -1.5674249e-07 -2.1514848e-07 -3.2468023e-08 -6.635686e-07
5.6089476e-08 2.2111017e-07 -2.071355e-07 -2.798903e-07 6.562492e-08 -6.173304e-07 6e-45 -7.0279617e-07
-1.6472517e-06 -1.090537e-05 6.978509e-07 -9.982929e-07 -2.6277985e-07 4.7240727e-09 -3.7223543e-07 -6e-45
1.9307889e-09 6.370743e-08 8.616448e-09 5.69229e-08 -2.1031214e-07 -1.936877e-08 -2.9517508e-07 7.265583e-08
-6.42176e-06 2.7699151e-08 2.4239955e-07 -1.3134007e-05 4.2303304e-07 -3.5117753e-07 -2.1372391e-07 -6.122697e-06
-1.0760161e-06 1.5500633e-07 -1.395797e-07 8.6150555e-07 -1.083622e-06 -1.0986001e-06 2.7984255e-09 -1.1711935e-06
1.810077e-07 -6.13186e-08 -4.070299e-07 -9.316416e-07 -1.4441327e-08 -4.3660103e-07 -8.9039986e-07 -3.4511484e-06
6e-45 -1.6052866e-07 -9.7786845e-08 2.4681017e-07 -1.8361956e-08 3.1544192e-09 -1.0191587e-06 5.161706e-08
1.3333147e-07 6e-45 5.524785e-08 -1.6824035e-07 3.8995148e-07 -2.6563336e-07 -9.428415e-08 -5.2353624e-09
-7.0604145e-08 -1.2590222e-08 -1.3121276e-06 2.3836297e-07 -3.0422758e-08 1.0177791e-07 1.855361e-07 -2.133914e-07
1.2429929e-07 -1.9888417e-07 4.79012e-09 -6.9065716e-15 1.1011032e-07 -7.1842214e-07 2.0608174e-07 2.8909176e-07
3.6854478e-11 -1.1693709e-08 -4.4068213e-07 -4.1193942e-07 3.3039512e-08 -5.9752693e-07 -5.0963557e-08 -5.5001347e-08
-9.814455e-08 -9.804467e-08 -1.16009815e-08 8.213706e-10 8.589415e-09 -5.3441893e-11 -1.1518118e-06 -2.5560098e-09
-1.01202524e-07 2.727731e-07 -1.1332937e-08 1.7732283e-07 1.839797e-08 1.4804394e-07 9.431497e-09 -1.0411102e-07
2.0536774e-08 2.3472433e-07 -1.03911e-07 1.2934575e-07 6e-45 -3.1504878e-17 1.264869e-07 -1.1797861e-08
8.407893e-08 1.4947251e-07 -1.6059074e-08 6e-45 -6.9042073e-07 6e-45 4.365299e-08 5.348523e-07
-2.816661e-07 2.7760555e-08 -8.4643625e-09 -7.321733e-14 1.1758102e-07 2.0446075e-10 3.3002514e-11 1.4283846e-08
-5.4743145e-07 -1.590393e-07 9.613574e-08 -1.39336e-07 8.9838376e-10 -4.910528e-07 6e-45 4.658918e-08
1.6913713e-08 2.4656183e-07 2.8825633e-07 4.4943778e-07 -2.7133824e-08 -6.0918937e-09 1.6190302e-07 6e-45
1.1302067e-07 1.5340046e-07 1.18474e-07 -7.0842763e-09 -2.3505142e-09 2.7893773e-08 2.0722588e-07 -1.0027135e-07
1.2589094e-07 2.7109428e-08 -2.295315e-06 -4.7224873e-08 -2.0293206e-07 4.6475165e-08 -8.862226e-07 5.3760743e-08
4.5432395e-07 -7.915111e-08 1.02136475e-07 3.5555626e-08 -8.388493e-07 -1.3130982e-07 3.8747705e-10 7.535351e-08
-1.1608783e-08 3.052028e-13 -2.0931965e-07 -2.429899e-07 -1.7932646e-16 -1.9514806e-07 7.755615e-08 -2.0499236e-08
