app/static/model/deblur_model.pth (torch, 82263 bytes, 6 tensors)

conv1.weight f4 [64, 3, 9, 9]
0	0x3cc161f3	0.023606276
1	0xbc581645	-0.013188903
2	0xbd4b54dd	-0.04964148
3	0x3d6ee427	0.05832305
4	0xbd41dac1	-0.04732776
5	0x3ccab4b1	0.024744364
6	0xbd10c886	-0.035347484
7	0xbda1e400	-0.07904816
8	0x3bc6cda7	0.006066996
9	0xbccc15e5	-0.024912784
10	0xbc3c1ac0	-0.011480987
11	0x3d11dd23	0.035611283
12	0x3d518455	0.051151592
13	0x3a6025f1	0.00085505756
14	0xbd42e169	-0.04757825
15	0xbc6e6159	-0.014549577
16	0x3d2d0eb4	0.04225035
17	0x3b991547	0.004671726
18	0xbd5fa730	-0.0546028
19	0x3b637b33	0.0034710884
20	0x3db9a35b	0.09064361
21	0x3dabc9bc	0.08388087
22	0x3db27433	0.087135695
23	0x3d9b9b88	0.075980246
24	0x3dbca846	0.09211783
25	0x3d3aac1b	0.04557429
26	0x3c34296e	0.010996206
27	0xbd3f5fdd	-0.04672228
28	0x3d0a0ff3	0.033706617
29	0x3d0b7769	0.034049425
30	0x3d385d2a	0.045010723
31	0x3dbc2aec	0.09187874
32	0x3d68a0b3	0.05679388
33	0xbb9a227e	-0.004703819
34	0x3c02e17d	0.007988331
35	0x3d0d3283	0.034472
36	0xbcc5712c	-0.024101816
37	0xbd277722	-0.0408851
38	0x3da3c956	0.07997386
39	0x3d35311e	0.044236295
40	0x3da870b0	0.082246184
41	0x3cea18b4	0.028576232
42	0xbc60ad80	-0.013713241
43	0x3d082af0	0.033244073
44	0xbd0cab2d	-0.034342933
45	0x3c81ee30	0.015860647
46	0xbd153c42	-0.03643442
47	0x3d4c6f5e	0.049910896
48	0x3d04ea08	0.032449752
49	0x3d285fa5	0.04110684
50	0x3d030e65	0.03199615
51	0x3d0aecb1	0.033917133
52	0x3d710c14	0.05884941
53	0xbd1da3ba	-0.03848622
54	0xbd8cd0cd	-0.06875763
55	0xbb9b31b4	-0.0047361497
56	0x3b2034e5	0.002444559
57	0x3d24700c	0.04014592
58	0xbbd3476c	-0.006447723
59	0xbd05ad99	-0.03263626
60	0xbc6f1a39	-0.014593654
61	0xbcefb40a	-0.029260654
62	0xbd263e58	-0.0405868
63	0x3d4600b3	0.04834051
64	0xbce190d5	-0.027534882
65	0xbc4e93c1	-0.012608469
66	0xbd1f53de	-0.03889834
67	0xba310366	-0.00067525206
68	0x3d800efe	0.062528595
69	0xbccf3790	-0.025295049
70	0x3d5b3a75	0.053522546
71	0xbc334bb4	-0.010943342
72	0xbda74836	-0.0816807
73	0x3d4a89d4	0.04944785
74	0x3c291824	0.010320697
75	0xbc9bfc8e	-0.019041326
76	0x3d429785	0.04750778
77	0x3c01b3a0	0.007916361
78	0xbd853635	-0.0650448
79	0x3c97d048	0.018531933
80	0xbda054f2	-0.07828702
81	0xbd8a101f	-0.06741356
82	0xbd215d3e	-0.039395563
83	0xbc36975e	-0.011144487
84	0xbd7bd559	-0.06148276
85	0x3c8396f6	0.016063195
86	0x3b198537	0.002342535
87	0x3d4958b9	0.04915688
88	0xbd7e1f09	-0.062041316
89	0x3c38d91b	0.011282231
90	0x3d59f828	0.053215176
91	0x3d381742	0.044944055
92	0x3d573cad	0.0525481
93	0x3d52c787	0.051459815
94	0x3d5ea566	0.054356955
95	0xbd237588	-0.03990701
96	0x3cedbb46	0.029019963
97	0xbd28dc91	-0.041225974
98	0xbd0124b7	-0.031529155
99	0x3be00cb3	0.0068374514
100	0x3cb837d8	0.022487566
101	0x3ddf1d4a	0.10894258
102	0x3db81b08	0.08989531
103	0x3da3a3b8	0.07990211
104	0x3d334e69	0.04377595
105	0x3d6c1b27	0.057643082
106	0x3b16a806	0.0022988333
107	0xbd3ff94b	-0.046868604
108	0xbd65a1ee	-0.05606263
109	0x3d1553b7	0.03645679
110	0x3da586e2	0.080823675
111	0xbc830664	-0.015994258
112	0x3d251222	0.040300496
113	0x3c4aec59	0.012385451
114	0x3ba2af71	0.004964762
115	0x3cfe2263	0.031022256
116	0xbd4334ec	-0.047657892
117	0x3c96957c	0.018381827
118	0xbcfc11f9	-0.030770289
119	0x3db143cb	0.086555086
120	0x3d054dea	0.032545008
121	0x3cf41bb5	0.029798368
122	0x3caec14b	0.021332404
123	0x39ad59e0	0.00033064093
124	0xbcfb160d	-0.030650163
125	0x3cd84e79	0.026404606
126	0xbd97e81e	-0.0741732
127	0x3d241cf8	0.04006669
128	0x3ded2a37	0.115803175
129	0x3d8171ce	0.06320535
130	0xbd7c741a	-0.06163416
131	0x3d6257a3	0.05525936
132	0x3d0861a5	0.033296246
133	0xbc023a64	-0.007948492
134	0xbad8e908	-0.0016548941
135	0x3c181a0f	0.009283557
136	0x3d74a794	0.059730127
137	0xbbb37753	-0.005476871
138	0x3d7d6eec	0.06187336
139	0x3c048412	0.008088129
140	0x3d1bd91a	0.03804884
141	0x3d3a1344	0.04542853
142	0xbc554efb	-0.013019319
143	0xbd368450	-0.044559777
144	0xbd5d243d	-0.053989638
145	0x3cf65ac2	0.030072574
146	0xbce6ca78	-0.028172716
147	0x3d78ae19	0.060712907
148	0x3d74eea7	0.05979791
149	0xbcefe1bd	-0.029282445
150	0x3b9e99ee	0.004840127
151	0x3d144dc2	0.036206968
152	0xbb01984c	-0.0019774614
153	0x3d0a4909	0.033761058
154	0xbd74364a	-0.059622087
155	0x3c6a9af4	0.01431917
156	0x3cae3a18	0.021267936
157	0x3cae0d89	0.021246688
158	0xbcaaffb1	-0.020873876
159	0xbd56bf8d	-0.05242877
160	0x3d5afbe6	0.053462885
161	0xbd7a896f	-0.061166223
162	0x3c13354e	0.008984877
163	0x3c834e3a	0.016028512
164	0xbbfafd4a	-0.007659589
165	0xbd09b5cd	-0.033620644
166	0xbd3194bb	-0.04335473
167	0xbcd20f32	-0.025642011
168	0x3c3f48fa	0.011675114
169	0x3d0567f0	0.032569826
170	0xbc52a530	-0.012856767
171	0x3cf76a94	0.030202188
172	0x3d15640d	0.03647237
173	0x3bd76995	0.0065738657
174	0xbcadcf86	-0.021217119
175	0x3c8d7963	0.017269796
176	0x3d5bed67	0.0536932
177	0xbd3a836c	-0.04553549
178	0xbc0b2fc4	-0.008495275
179	0xba8bc7c5	-0.0010664394
180	0x3c5560e3	0.013023588
181	0x3d01e6e4	0.031714335
182	0x3d873b00	0.0660305
183	0x3c630f30	0.013858601
184	0x3c821823	0.01588065
185	0x3d916b23	0.07100513
186	0xbc99004f	-0.018676905
187	0xbd11c4d4	-0.0355881
188	0xbbe5b3c1	-0.0070099537
189	0xbd612594	-0.054967478
190	0xbd47e63d	-0.048803557
191	0xbce6a3b8	-0.028154239
192	0xbd0f21b0	-0.034944236
193	0x3c9dcca7	0.019262625
194	0x3cc0add5	0.02352039
195	0x3c7a43e7	0.015274978
196	0x3c78bd83	0.015181902
197	0xbd70cc4c	-0.058788583
198	0x3d438418	0.047733396
199	0xbd5234d6	-0.05131992
200	0x3c66bbf5	0.014082898
201	0x3cda4428	0.026643828
202	0xbd3cc1f3	-0.046083402
203	0xbc541a57	-0.012945733
204	0xbcdea13b	-0.02717649
205	0xbc37424e	-0.011185242
206	0x3d460588	0.04834512
207	0x3d2cc750	0.042182267
208	0xbcb608b3	-0.022220945
209	0x3d6172a7	0.05504098
210	0xbd8300ee	-0.06396662
211	0x3d21357c	0.039357647
212	0xbda2b8cc	-0.079454035
213	0x3cf71ecd	0.030166054
214	0xbc98d8ea	-0.01865812
215	0xbd5a3295	-0.053270895
216	0x3bb72777	0.0055894214
217	0x3d2aaf43	0.04167105
218	0x3d19a388	0.03750947
219	0xbbcdfe5f	-0.006286427
220	0x3c547449	0.012967178
221	0x3d2d6375	0.042331178
222	0xbd336e28	-0.043806225
223	0x3b5b9c0d	0.0033509762
224	0x3d4dae05	0.050214786
225	0x3cdd7110	0.027031451
226	0x3b9b0d79	0.0047318307
227	0xbd831215	-0.06399933
228	0xbcf70b99	-0.030156897
229	0x3d0986c8	0.033575803
230	0x3cf72fc4	0.030174144
231	0xbcff146b	-0.031137666
232	0x3d95602f	0.07293736
233	0xbc5dd1e5	-0.013538812
234	0x3d6b66c0	0.057471037
235	0xbd350c25	-0.044201035
236	0xbd72e2d4	-0.05929835
237	0x3d32d5a4	0.043660775
238	0xbd0bb9b5	-0.03411265
239	0xbd46957a	-0.048482396
240	0xbd6f2676	-0.05838629
241	0x3d5b5b33	0.05355377
242	0x3b61ad67	0.0034435631
243	0x3d4ae77d	0.04953717
244	0xb7d2daf1	-2.5135903e-05
245	0xbcf4d0f7	-0.029884798
246	0xbd8ffcaf	-0.070306174
247	0xbc3ead78	-0.011638038
248	0xbcbb3fec	-0.022857629
249	0xbcdc51cf	-0.026894478
250	0xbd251145	-0.040299673
251	0xbd01f2a9	-0.03172556
252	0x3ca69542	0.020334844
253	0xbd19ed64	-0.03757991
254	0xbc9fa040	-0.019485593
255	0xbd7da5a9	-0.061925564

conv1.bias f4 [64]
0	0xbd51a6f8	-0.051184624
1	0x3d0093a5	0.031390805
2	0x3b9a6d8f	0.0047127674
3	0x3bcf6e41	0.006330282
4	0xbb84cd43	-0.0040527894
5	0x3cfab83a	0.030605424
6	0x3d23ec69	0.04002038
7	0xbd4411f1	-0.047868673
8	0xbc76d997	-0.015066526
9	0x3dc2d572	0.09513368
10	0x3b127084	0.0022344897
11	0x3c0639a1	0.008192451
12	0x3db79aeb	0.08965095
13	0x3d26346e	0.040577345
14	0xbbb271c9	-0.005445693
15	0xbd0cd48a	-0.03438238
16	0x3d5a65b1	0.053319637
17	0x3d362397	0.044467535
18	0xbcfc1618	-0.030772254
19	0xbd5d48d5	-0.054024536
20	0x3c3c1517	0.011479638
21	0x3c57c87a	0.013170356
22	0x3e03422c	0.12818211
23	0xbd50e36e	-0.050998144
24	0xbd5d354c	-0.054005906
25	0x3df2135b	0.11820098
26	0xbc1ab5a3	-0.00944272
27	0x3bae6f81	0.005323351
28	0x3dad8a7e	0.08473681
29	0x3dceae25	0.10091809
30	0x3dee7716	0.116438076
31	0x3bb2e2f5	0.0054591843
32	0x3dbcadca	0.09212835
33	0x3d210b6a	0.039317526
34	0x3df85e4b	0.1212736
35	0xbd0a1117	-0.033707704
36	0x3d3f1c0d	0.04665761
37	0x3c50bd40	0.012740433
38	0x3d5b9c82	0.053616054
39	0x3ca77021	0.02043921
40	0xbd345d0b	-0.044034045
41	0xbd01df88	-0.031707317
42	0x3b822d96	0.0039727194
43	0x3d9fd239	0.07803769
44	0x3d8a3a11	0.067493565
45	0x3d176f9b	0.03697167
46	0xbc973227	-0.018456532
47	0xbd584dc8	-0.052808553
48	0xbce08622	-0.02740771
49	0x3dca7453	0.09885468
50	0xbd685a0c	-0.0567265
51	0xbd15f285	-0.036608238
52	0x3ba6185b	0.0050688214
53	0x3d980b79	0.07424063
54	0x3d805d4d	0.06267796
55	0xbc6b5f3e	-0.014365969
56	0xbb1cd187	-0.00239286
57	0xbcbfefb0	-0.023429722
58	0xbd80f0c2	-0.06295921
59	0xbceb8058	-0.028747723
60	0x3d87abf9	0.06624598
61	0x3db7d126	0.08975439
62	0xbd813886	-0.06309609
63	0x3d8c7006	0.06857304

conv2.weight f4 [32, 64, 1, 1]
0	0xbcf0d2f9	-0.029397475
1	0xbd8501ab	-0.06494459
2	0xbd316ce4	-0.043316737
3	0xbda1fd36	-0.07909624
4	0xbd4d2009	-0.05007938
5	0xbd1b149e	-0.03786146
6	0xbd4163fd	-0.047214497
7	0xbd7bc678	-0.06146857
8	0x3d8b2a24	0.06795147
9	0xbddf1ddf	-0.10894369
10	0x3bf69bf9	0.0075259176
11	0xbab8bffe	-0.0014095304
12	0x3d4b39df	0.049615737
13	0x3d944a8c	0.07240781
14	0x3dafdaa0	0.08586621
15	0xb9ced551	-0.00039450315
16	0x3caf5d9b	0.02140694
17	0xbdcf838c	-0.101325125
18	0x3dc2f769	0.09519846
19	0xbe067a9b	-0.13132708
20	0x3c3d5383	0.011555555
21	0x3db01a86	0.08598809
22	0x3cef3f99	0.02920513
23	0x3dc69178	0.09695715
24	0xbd4d67cf	-0.050147828
25	0xbd351e8b	-0.04421858
26	0x3d487578	0.048940152
27	0x3ded7ae9	0.11595709
28	0xbd7abc23	-0.061214577
29	0xbe0195b4	-0.12654763
30	0x3dd92af4	0.10603896
31	0x3d9e2942	0.07722713
32	0x3d596cf7	0.053082433
33	0x3d391e84	0.045195118
34	0xbdc10734	-0.09425202
35	0xbd1b026b	-0.037844103
36	0xbd809d13	-0.062799595
37	0x3db0fc5f	0.08641886
38	0x3c8d41af	0.017243234
39	0xbdb39af0	-0.08769786
40	0xbd749a19	-0.05971727
41	0x3baff920	0.005370274
42	0x3db6f223	0.08932903
43	0xbcf6cef9	-0.03012799
44	0xbde65d9a	-0.11248322
45	0x3dd17bff	0.102287285
46	0x3c89a9c1	0.016804578
47	0x3d6a49f9	0.057199452
48	0x3de1e247	0.11029487
49	0xbcdced08	-0.026968494
50	0xbc06a7b0	-0.008218691
51	0xbc803c2e	-0.015653696
52	0x3ceac52d	0.028658474
53	0xbcb16b24	-0.021657534
54	0xbca3df40	-0.020003915
55	0x3dd65cce	0.1046692
56	0xbdb14d5f	-0.086573355
57	0x3cd62e81	0.026145222
58	0xbd3cc944	-0.04609038
59	0xb94f468c	-0.00019767339
60	0x3d8679c8	0.06566197
61	0xbd9d218f	-0.076724164
62	0x3d227644	0.03966357
63	0xbd2ee148	-0.042695314
64	0xbcc48790	-0.023990422
65	0x3d8eea31	0.06978262
66	0xbe13e2f8	-0.1444205
67	0x3cf354cf	0.029703526
68	0x3b24b790	0.0025133826
69	0x3d7467d8	0.059669346
70	0x3da67649	0.0812803
71	0x3d1e2a90	0.03861481
72	0xbcc7ab1d	-0.024373585
73	0x3de154dc	0.11002514
74	0xbc86f1fe	-0.016472813
75	0x3e3e9671	0.18612076
76	0x3d251c9e	0.040310495
77	0x3ccc201a	0.024917651
78	0x3d9108ab	0.070817314
79	0x3ef044a6	0.46927375
80	0xbdc8793c	-0.097887486
81	0xbd0fc116	-0.03509625
82	0x3c48d248	0.012257166
83	0xbd2f6a54	-0.04282601
84	0x3d8cf5eb	0.06882843
85	0xbd9444c5	-0.07239679
86	0x3d8fefca	0.07028158
87	0x3c071699	0.008245134
88	0x3dbf6c9e	0.09346889
89	0xbde7649a	-0.11298485
90	0xbc7fdc9b	-0.015616561
91	0xbd06329f	-0.03276312
92	0x3dd6a94c	0.104815096
93	0x3db480ce	0.0881363
94	0x3d11155a	0.035420753
95	0x3e01eeea	0.12688795
96	0x3e0c7c00	0.13719177
97	0x3ee10c1d	0.43954554
98	0x3db6c9fa	0.08925243
99	0xbd6c6296	-0.057711206
100	0x3c64f83e	0.013975201
101	0x3c5cf8b3	0.013487029
102	0x3ba0f06f	0.0049114744
103	0x3d80ddae	0.06292282
104	0x3ce158da	0.027508188
105	0xbd590abb	-0.05298875
106	0xbd507761	-0.0508951
107	0xbc8fac26	-0.017538141
108	0x3ddc7faf	0.10766541
109	0x3d513406	0.051075004
110	0x3dcff0fc	0.10153386
111	0x3d99d453	0.07511201
112	0x3de439ea	0.11143859
113	0x3b5d1e0a	0.0033739829
114	0xbcb71468	-0.022348598
115	0x3ea20096	0.31641072
116	0xbd4ed33e	-0.050494425
117	0xbda85432	-0.08219184
118	0x3e73e567	0.23817979
119	0xbd29c01d	-0.04144298
120	0xbd86b76e	-0.06577955
121	0xbdb91b56	-0.09038417
122	0x3bb73600	0.005591154
123	0xbd98be1e	-0.07458137
124	0x3d7db978	0.061944455
125	0xbb8dacdd	-0.0043235854
126	0x3b1461b9	0.0022641255
127	0xbdc328a5	-0.09529237
128	0xbe929d77	-0.2863576
129	0xbdc20f28	-0.09475547
130	0x3d3ad4b8	0.04561302
131	0x3dabc732	0.08387603
132	0xbda42e10	-0.08016598
133	0xbd37700e	-0.044784598
134	0xbbc445c6	-0.005989763
135	0xbdca1a91	-0.098683484
136	0xbd9a1a0c	-0.07524499
137	0xbbb0f2fc	-0.0054000597
138	0xbde27d84	-0.110590965
139	0x3d0d541b	0.034504037
140	0x3b7a1ca6	0.0038164048
141	0xbc64c6f4	-0.01396345
142	0x3dc2e5f4	0.09516516
143	0xbd51d959	-0.05123267
144	0xbb8b0dd3	-0.0042435913
145	0x3d5e17c9	0.054221902
146	0x3d373742	0.044730432
147	0xbd829145	-0.06375364
148	0xbd83ff7a	-0.06445213
149	0x3d075c9a	0.033047296
150	0xbcc8b3ff	-0.024499891
151	0xbd259429	-0.0404245
152	0x3ddd0581	0.107920654
153	0x3c0360e1	0.008018703
154	0xbd01ba04	-0.03167154
155	0xbdf8b3e0	-0.121436834
156	0x3d2fd10c	0.042923972
157	0x3ce9a994	0.028523244
158	0xbdb67fa4	-0.08911064
159	0x3e6f4def	0.23369573
160	0xbbf37744	-0.007429989
161	0x3db5892a	0.088640526
162	0x3e566ef3	0.20940761
163	0x3e37204d	0.17883416
164	0xbdc107c0	-0.09425306
165	0x3dd92a2d	0.106037475
166	0xbd6b95e5	-0.057515997
167	0xbc424bf3	-0.011858928
168	0xbe8e2c6f	-0.27768275
169	0xbd29c6ad	-0.041449238
170	0x3d520971	0.051278535
171	0x3d07e4d9	0.03317723
172	0x3dd8a556	0.1057841
173	0xbd796861	-0.06089056
174	0xbdf3d3b9	-0.11905617
175	0xbdf2575d	-0.118330695
176	0xbdbf845e	-0.09351419
177	0xbe113ef1	-0.14184166
178	0x3d11dff8	0.035613984
179	0xbd4cd9a0	-0.05001223
180	0x3dc58634	0.09644738
181	0xbcc54bf3	-0.024084067
182	0xbca05117	-0.019569917
183	0x3c0db6e9	0.008649566
184	0x3d0b6491	0.034031454
185	0xbe0aa765	-0.13540418
186	0x3d3c80e4	0.046021357
187	0x3dbbae27	0.09164076
188	0x3d906f23	0.07052448
189	0xbda0f8eb	-0.07859977
190	0x3bdecf20	0.0067995936
191	0xbcaf6e2a	-0.021414835
192	0xbe166d75	-0.14690192
193	0xbe058d6c	-0.1304223
194	0xbd9d032e	-0.07666622
195	0x3cce463f	0.02517998
196	0xbdebf336	-0.11520998
197	0xbda47294	-0.080296665
198	0xbda410ad	-0.08010993
199	0xbdacb096	-0.084321186
200	0x3db05deb	0.086116634
201	0x3c391d22	0.01129845
202	0x3de15b55	0.11003748
203	0xbde383fc	-0.111091584
204	0x3d648313	0.055789065
205	0xbcdb60b8	-0.026779518
206	0xbbf17a43	-0.007369311
207	0x3d90ff5a	0.070799544
208	0x3cdda5a9	0.027056532
209	0x3dc04c12	0.09389509
210	0xbcce1bc3	-0.025159722
211	0xbce253a7	-0.02762778
212	0xbd816ceb	-0.063196026
213	0xbcdcda45	-0.026959548
214	0xbe1cb13f	-0.15301989
215	0xbdb794a0	-0.08963895
216	0xbde2ccc0	-0.11074209
217	0x3cb0e36b	0.021592816
218	0x3df417a0	0.119185686
219	0x3da2fb2c	0.079580635
220	0xbe1bc51e	-0.15211913
221	0x3d90df76	0.07073872
222	0x3cd1133c	0.025521867
223	0xbc372024	-0.0111770965
224	0xbb835514	-0.004007945
225	0xbde612ae	-0.112340316
226	0xbc8d5572	-0.017252658
227	0xbded82bf	-0.115972035
228	0xbd738826	-0.059456013
229	0x3dc158af	0.09440743
230	0xbd41272e	-0.047156505
231	0x3bed5039	0.0072422293
232	0x3d10b334	0.03532715
233	0x3daa819e	0.08325504
234	0x3b55a7e4	0.0032601291
235	0xbda5a7fb	-0.0808868
236	0xbe103a65	-0.14084776
237	0xbcbd8c41	-0.023138167
238	0xbd5a242d	-0.053257156
239	0x3d1191dc	0.035539493
240	0xbda0a3a8	-0.07843715
241	0x3dcebb8c	0.100943655
242	0x3d879e30	0.06621969
243	0xbc2f8930	-0.01071386
244	0x3dc3b92a	0.095568016
245	0x3d793801	0.060844425
246	0x3d77eafc	0.060526833
247	0xbdb080ae	-0.08618294
248	0xbd46c2b5	-0.04852553
249	0xbd886ff2	-0.06661977
250	0x3b679600	0.003533721
251	0xbd75ba5b	-0.059992176
252	0x3dd88c89	0.1057368
253	0xbc368c5b	-0.011141862
254	0xbdac5b4e	-0.084158525
255	0xbd833b6b	-0.064078175

conv2.bias f4 [32]
0	0xbd317cf2	-0.043332048
1	0x3e02fc4f	0.1279156
2	0xbb041d34	-0.0020159008
3	0xbe02525f	-0.12726735
4	0x3d67e525	0.056615014
5	0x3dae55cd	0.08512459
6	0x3c220168	0.009888031
7	0x3cdf8fda	0.027290273
8	0x3d0394c1	0.032124285
9	0xbd9ce526	-0.07660894
10	0xbde90e8c	-0.11379728
11	0xbccd1f10	-0.025039226
12	0x3c9c5a6d	0.019086087
13	0x3d2b267b	0.041784745
14	0x3d37d32c	0.044879124
15	0x3dc07375	0.09397022
16	0x3da1907e	0.07888888
17	0xbc705769	-0.014669278
18	0x3dbafa76	0.09129803
19	0x3d4850f5	0.04890533
20	0xbd569769	-0.05239049
21	0x3d437aae	0.04772442
22	0xbc194713	-0.009355324
23	0x3c9d800c	0.019226097
24	0xbc474cc4	-0.012164298
25	0xbdba4737	-0.090956144
26	0x3d16ed20	0.036847234
27	0x3dbd82a8	0.09253436
28	0x3d8cd1dd	0.06875966
29	0xba8592b9	-0.0010190821
30	0x3d41aed6	0.047285877
31	0xbde8254c	-0.11335239

conv3.weight f4 [3, 32, 5, 5]
0	0x3cc31048	0.023811474
1	0x3cd1c0be	0.025604602
2	0xbcdd8aa0	-0.02704364
3	0x3c0aae82	0.0084644575
4	0x3d20ce1e	0.03925907
5	0xbc2af1f8	-0.010433666
6	0x3b0c4c75	0.0021407877
7	0x3c0ee01f	0.008720427
8	0x3b4ef98e	0.0031581852
9	0x3c679d64	0.014136646
10	0xbca7d8b0	-0.020489067
11	0x3cb18484	0.021669634
12	0xbcd7e1ba	-0.026352752
13	0xbc62b1be	-0.013836322
14	0xbc5cc3be	-0.013474403
15	0x3cec650d	0.028856779
16	0xbcaefd46	-0.021361005
17	0x3c09b5d1	0.008405165
18	0xbb6b1d28	-0.0035875533
19	0xbcd18388	-0.025575414
20	0xbcd34a93	-0.025792396
21	0x3cea718c	0.028618596
22	0x3d2a9b09	0.04165176
23	0x3cd3910b	0.025825998
24	0xbcc6fa5a	-0.024289299
25	0x3c2ce4cf	0.010552599
26	0x3c443030	0.011974379
27	0xbd0356ed	-0.03206532
28	0x3a8aff7a	0.0010604702
29	0x3d8fdbbc	0.07024333
30	0xbd1fdf6f	-0.039031442
31	0xbcd11e9a	-0.025527287
32	0xbb87d5d8	-0.004145365
33	0x3d1624d2	0.03665621
34	0x3d5bffe0	0.05371082
35	0xbd14bc2a	-0.03631226
36	0xbcb572d7	-0.022149486
37	0x3c1b1d3d	0.00946742
38	0xbc66c493	-0.014084953
39	0xbca6622e	-0.020310488
40	0x3c7fd681	0.015615107
41	0x3ca9f344	0.02074588
42	0xbc26cc00	-0.010180473
43	0x3d453295	0.048143942
44	0xbd059cac	-0.032620117
45	0x3c00f2dc	0.007870402
46	0x3bb06cc3	0.005384059
47	0x3d808eff	0.06277274
48	0x3b5b90f3	0.0033503145
49	0xbc6e0a79	-0.014528864
50	0xbc421084	-0.011844758
51	0xbd1eb9c5	-0.038751382
52	0x3b3d43cf	0.0028879528
53	0xbcaf91a4	-0.021431752
54	0xbb627785	-0.0034556102
55	0xbd37f529	-0.044911537
56	0xbc7c260f	-0.015389933
57	0x3c0e6953	0.008692103
58	0xbc206a26	-0.009790933
59	0xbc35770a	-0.011075744
60	0x3bab69d9	0.005231124
61	0xbc79432e	-0.015213771
62	0xbc522941	-0.0128272185
63	0xbc30867b	-0.01077425
64	0x3b9c01dc	0.004760964
65	0xbd6eea10	-0.05832869
66	0x3b575e6f	0.0032862683
67	0xbd110f5a	-0.03541503
68	0xbd2657c1	-0.040611032
69	0xbc140d4a	-0.0090363715
70	0xbd3cdb80	-0.04610777
71	0xbd5866e6	-0.052832507
72	0x3ccaa14d	0.024735117
73	0x3d0c9f19	0.034331415
74	0xbc7eb7e9	-0.015546777
75	0xbd19df37	-0.03756639
76	0xbc966d6a	-0.01836272
77	0xbd66f4bd	-0.056385744
78	0xbc83cb6f	-0.016088216
79	0xbd67261d	-0.056432832
80	0xbd01bd3b	-0.031674605
81	0xbb8d1384	-0.004305305
82	0xba6db6d1	-0.0009068074
83	0xbcaa57f7	-0.020793898
84	0xbcb3237a	-0.021867502
85	0xbd0d0592	-0.03442914
86	0xbaa418a7	-0.0012519554
87	0xbd3f866b	-0.04675905
88	0xbd119f41	-0.035552267
89	0xbd400f31	-0.046889488
90	0xbd3aaa5a	-0.045572616
91	0xbca73578	-0.020411238
92	0xbcb031ec	-0.02150818
93	0xbd054751	-0.032538716
94	0xba4a7c07	-0.000772417
95	0xbca29fef	-0.019851653
96	0xbc2ee9b6	-0.010675838
97	0x3c218a42	0.009859623
98	0xbd5ac20e	-0.05340772
99	0x3b771707	0.0037702934
100	0xbc42e9ba	-0.011896545
101	0xbd027164	-0.03184642
102	0xbcfbac2e	-0.03072175
103	0xbcd1f67d	-0.02563023
104	0xbd8aca4e	-0.06776868
105	0x3c8fe1ec	0.017563783
106	0xbc91e7b3	-0.017810678
107	0x3d7c9c74	0.061672643
108	0x3ca4ef3e	0.02013361
109	0xbd31570f	-0.043295916
110	0xbd2550e2	-0.04036034
111	0xbb087ce1	-0.0020826387
112	0x3d788973	0.060677957
113	0x3ce8370d	0.028346563
114	0xbd936835	-0.0719761
115	0xbd05526d	-0.03254931
116	0xbbca1feb	-0.0061683557
117	0x3cef0eab	0.029181799
118	0x3c527c83	0.012847069
119	0xbd240389	-0.040042434
120	0xba94902e	-0.0011334473
121	0xbbfccf6f	-0.0077151577
122	0x3cbf103d	0.023323173
123	0xbd1db3b1	-0.038501445
124	0x3c28d2e0	0.010304183
125	0x3c834939	0.016026126
126	0x3cf28fbe	0.029609557
127	0xbc5209f1	-0.012819753
128	0xbd282773	-0.041053247
129	0xbd756aa5	-0.059916157
130	0x3d57d5d7	0.052694168
131	0x3d5d9f50	0.05410701
132	0x3cd230d0	0.025658041
133	0xbc52fdc1	-0.012877882
134	0xbdbb9145	-0.09158567
135	0x3d82bcc1	0.06383658
136	0x3cef587d	0.029217
137	0x3ab151fe	0.0013528464
138	0xbc63144a	-0.013859818
139	0xbd10be6d	-0.035337854
140	0x3e023a26	0.12717494
141	0x3d0a9b81	0.033839706
142	0xbd44df67	-0.048064616
143	0xbd6f2652	-0.058386154
144	0x3cca0244	0.024659283
145	0x3d6b129f	0.057390805
146	0x3b99e85a	0.004696888
147	0xbcc861c0	-0.024460673
148	0xbc3d1b9d	-0.011542228
149	0xbce0a4b0	-0.02742228
150	0x3987f299	0.00025929956
151	0xbc72f908	-0.0148298815
152	0x3c777536	0.015103629
153	0x3aec8491	0.0018044879
154	0x3d629482	0.05531741
155	0x3c581c92	0.013190405
156	0xbb5d7476	-0.003379134
157	0x3c5f9110	0.013645425
158	0x3c3fb89a	0.011701727
159	0x3cdc8203	0.026917463
160	0xbd10c7fb	-0.035346966
161	0xbceea4f2	-0.029131386
162	0x3cfbc7ad	0.030734861
163	0x3cf11cff	0.029432772
164	0x3d643919	0.055718515
165	0xbd542fdc	-0.051803455
166	0xbcf0a62d	-0.029376114
167	0x3d20b5f1	0.039236013
168	0x3db3e330	0.08783567
169	0x3e013587	0.12618075
170	0xbdccdf99	-0.10003585
171	0xbd20654a	-0.039159097
172	0xbb93588d	-0.00449664
173	0x3d9d829c	0.076909274
174	0x3e0cd71b	0.13753931
175	0xbd9e26c5	-0.077222385
176	0xbcdb3ece	-0.026763346
177	0x3c06f9b8	0.0082382485
178	0xbc0819fc	-0.008306976
179	0xbdc212f9	-0.09476275
180	0xbcb6fc6b	-0.02233716
181	0x3ba736d2	0.0051029706
182	0x3c579eee	0.01316045
183	0x3cdd9bcb	0.027051827
184	0xbc6f4681	-0.014604212
185	0x3d252e09	0.040327106
186	0x3d067634	0.03282757
187	0x3b6893e8	0.003548855
188	0x3c9242a8	0.01785405
189	0x3b6b10c1	0.003586814
190	0x3e102706	0.14077386
191	0x3db8ad74	0.090174586
192	0x3d677fe0	0.056518435
193	0x3da989cc	0.08278236
194	0x3d9230ea	0.07138236
195	0x3e788d19	0.24272574
196	0x3e24b3cc	0.16084212
197	0x3de3764d	0.111065485
198	0x3e0496c9	0.12948145
199	0x3ddc9e46	0.10772376
200	0xbd5195a6	-0.051168106
201	0x3cc92c80	0.024557352
202	0xbcb1a44d	-0.02168479
203	0x3c6cde7b	0.01445734
204	0x3d0075f1	0.031362478
205	0xbd3c30f0	-0.045945108
206	0xbd78b868	-0.06072274
207	0xbbaf7a63	-0.005355166
208	0xbc46a5c2	-0.012124481
209	0xbc9934d2	-0.018701945
210	0xbcd027d4	-0.025409617
211	0xbc974df2	-0.018469784
212	0xbd8040b3	-0.062623404
213	0xbca77f6a	-0.020446498
214	0xbc206d0f	-0.009791627
215	0xbcbf0e54	-0.023322262
216	0xbc9d4ebe	-0.019202586
217	0xbd60214a	-0.054719247
218	0x3ccdea6a	0.025136191
219	0xbc67248b	-0.014107834
220	0xbc32acec	-0.010905486
221	0xbccb40aa	-0.024811108
222	0x3d02e454	0.031956032
223	0x3c4343f7	0.01191806
224	0xbbadd0f6	-0.005304451
225	0x3d639682	0.055563457
226	0x3d919ba9	0.07109768
227	0x3da397d1	0.07987941
228	0x3dacc756	0.08436458
229	0x3d8c23ad	0.06842742
230	0xbce664c6	-0.028124224
231	0x3cb1f925	0.021725247
232	0x3d61dda0	0.055143
233	0xbc800d4a	-0.015631337
234	0x3ba0c5b4	0.0049063805
235	0xbbf3ceb6	-0.0074404133
236	0x3a44cc0f	0.0007507214
237	0x3c12b86b	0.0089551015
238	0xbd241cc1	-0.040066484
239	0xbd295b3d	-0.041346777
240	0xbc8b6027	-0.017013622
241	0xbcc1b377	-0.023645146
242	0xba9e8ced	-0.0012096443
243	0xbb1bb576	-0.0023759282
244	0xbc2cf05e	-0.010555355
245	0xbcbd8381	-0.023133995
246	0xbc045ce7	-0.00807879
247	0x3bc662b3	0.0060542463
248	0x3bf4e8f3	0.007474059
249	0xbb9fc028	-0.0048752017
250	0xbbab0b10	-0.0052198246
251	0xbcd8e630	-0.02647695
252	0x3c7fe43c	0.01561838
253	0xbbd62908	-0.006535653
254	0xbb39f950	-0.0028377362
255	0x3b101f60	0.0021991357

conv3.bias f4 [3]
0	0xbc8468e9	-0.016163306
1	0x3d0bec68	0.034161
2	0x3cad0baf	0.021123735
